2024/07/FederatedLearning/Part02/L2/my_centralized_model/adapter_model.bin (torch, 791378 bytes, 12 tensors)

base_model.model.gpt_neox.layers.0.attention.query_key_value.lora_A.weight f4 [16, 512]
000000 09 39 d4 3c 6b 3d bb bc 28 91 30 bd cc d9 d4 bc
       0.025906103 -0.022856435 -0.04310718 -0.02598276
000010 9b e0 6c 3c 1e 66 58 bc fc 1e ed 3b ae 9b 63 bb
       0.014457847 -0.01320794 0.0072363596 -0.0034730243
000020 62 65 0d 3d 2a 38 04 bd b8 99 65 3c 4e b7 19 bd
       0.034520514 -0.032280125 0.0140137 -0.03752833
000030 af 0a bf bc af b3 d4 bc f1 eb 17 3d e9 df 2a 3d
       -0.023320524 -0.025964586 0.037090246 0.041717444
000040 42 7f c3 3c 82 ef bc 3c d4 d1 9d bc b1 1c 28 bd
       0.023864392 0.023063425 -0.019265093 -0.041042987
000050 b7 d2 db 3c df 10 eb bc 15 7d cb 3c 7f c5 a1 3c
       0.026833875 -0.028694568 0.024839917 0.019747494
000060 43 7b f9 bc 03 51 dc ba 50 9e 27 bc bb 26 f0 3b
       -0.030454284 -0.0016808811 -0.010230616 0.007328836
000070 bd 95 d3 3b ec f9 28 3d ee 62 ad bc a3 3b e5 3c
       0.006457059 0.04125397 -0.021165337 0.027982539
000080 62 e8 06 bd da 52 b8 bc 62 64 03 3d 5d 4c fa 3c
       -0.03293646 -0.022500444 0.032078154 0.030553991
000090 ee 1a 86 3c 4b 4b e7 3c 89 e7 f9 bc ca 2e 0e 39
       0.016370263 0.028234145 -0.030505912 0.00013559606
0000a0 9a d9 be 3c 97 33 1b bd 59 70 46 bc 00 6f 07 bd
       0.02329712 -0.037890997 -0.012111747 -0.033064842
0000b0 09 e9 ac bc 6b 8c a6 3b d2 be 03 bd 6c 99 31 3d
       -0.021107214 0.005082657 -0.032164402 0.043359205
0000c0 66 ba ac 3c 3a 82 99 3c f8 ac ac bc 07 a5 2d bd
       0.021084975 0.018738855 -0.021078572 -0.04239371
0000d0 5f cb e0 3c ac a9 27 bd 87 e9 c7 bc cc cc da bc
       0.027440725 -0.040933296 -0.024403347 -0.026708983
0000e0 f2 50 7c bc 0f 74 dd 3c 30 2a f7 3b 13 8c 02 bd
       -0.015400158 0.02703288 0.007542871 -0.031871866
0000f0 e5 6f 0e 3d e0 9a bf 3c 9f c1 1b bd e1 ea ae 3c
       0.03477468 0.02338928 -0.03802645 0.021352233
000100 6a e0 29 3c 16 93 bc bc ab 9d eb bc fd d0 6b 3c
       0.010368446 -0.023019355 -0.028761705 0.014393088
000110 b0 f4 d3 3c bd 9d 31 bd f0 70 1d 3c c5 21 07 3c
       0.025873512 -0.04336332 0.009609446 0.008247797
000120 d9 35 01 3d a9 28 86 bc 20 94 ac 3c 55 a9 fd 3c
       0.031545494 -0.01637681 0.021066725 0.030964533
000130 b0 03 dc bc 38 3c 86 bc 41 80 bd bc 94 5a f3 bc
       -0.026857227 -0.016386136 -0.023132445 -0.029706277
000140 87 6b ef 3c 9d 24 3c 3c 36 17 f4 39 5a e0 d6 3c
       0.029226078 0.011483339 0.000465566 0.026230026
000150 08 8c 24 bd d0 34 9b bb 28 cc 28 bd fd af ad 3b
       -0.040172607 -0.0047365203 -0.041210324 0.0053005205
000160 cd c8 ce 3c 95 88 aa bc 25 32 18 bd 96 70 24 3c
       0.025242234 -0.02081708 -0.037157197 0.010036608
000170 8f 2a d1 bb 67 0b fa bc 79 9e ff 3c 5e 3e 23 bc
       -0.006383247 -0.030523015 0.031203495 -0.0099636
000180 3d 76 09 3d 0f aa 5c 3c 5a bc 0e bd f4 b5 88 3c
       0.033560026 0.0134682795 -0.034847595 0.016688325
000190 99 3d 45 bc a0 dc 1e 3c 59 5b c8 3c 39 0f f0 3b
       -0.012038612 0.009696156 0.02445762 0.0073260334
0001a0 a5 9e ba ba bd ea 10 3d 16 4d 17 3d 89 7e 03 3d
       -0.0014237954 0.035380114 0.03693875 0.032103095
0001b0 45 83 ee bc 8a 1f 8c bb 3a e4 f6 3b 70 05 0a bd
       -0.029115329 -0.0042762207 0.007534531 -0.03369659
0001c0 fa 25 bb bc 09 e0 9c 3b 8c 60 a5 3c 74 41 26 3d
       -0.022845257 0.0047874493 0.020187639 0.040589765
0001d0 a1 8d 85 bc 0a e2 59 bc 5c 1a 32 bc 96 f7 08 3d
       -0.016302885 -0.013298521 -0.010870542 0.03343924
0001e0 f2 f1 2f 3d ed 98 9c 3c 3b 64 32 3d 4e b7 97 3c
       0.042955346 0.01911589 0.04355262 0.018520024
0001f0 c1 40 2c 3d 3e dd 83 3a 0f 30 9b 3c bc b1 38 bc
       0.04205394 0.0010060442 0.018943815 -0.011272844
000200 67 49 ed bc ab cb 8a 3c f9 e6 38 3c 37 f7 11 3b
       -0.028965665 0.01694282 0.011285537 0.0022272596
000210 ad 44 03 3d 8b 6f c4 bc 01 a9 9f bc 16 33 11 bd
       0.032047916 -0.02397897 -0.019489767 -0.03544911
000220 c6 a2 23 3d a9 8b 8e 3c 68 ab 57 3c 23 bd cc 3c
       0.039950155 0.01740058 0.013163425 0.024992531
000230 28 02 7d bc 64 fc 1f 3d 2e 52 6b bc 9c 95 dc 3b
       -0.015442409 0.039059058 -0.014362855 0.006731702
000240 c1 82 e2 3c 74 4f 78 3c 73 ff b1 bc 47 98 75 bc
       0.027650239 0.015155662 -0.021728253 -0.014989919
000250 17 e6 07 bd b3 54 29 bd 14 55 f9 3c cf 71 16 bd
       -0.033178415 -0.04134054 0.030436076 -0.03672963
000260 84 2e e3 bc d1 05 fd bc 5e 07 38 3d 2c e7 ab 3c
       -0.027732141 -0.030886563 0.0449289 0.020984255
000270 2d c3 24 3d 2a 83 4e bb 8b f6 27 bd c8 f6 ff bc
       0.040225197 -0.0031511285 -0.041006606 -0.031245604
000280 68 1b ad 3c 0b 57 03 3d 51 c9 04 3d c1 02 79 3c
       0.021131232 0.032065433 0.032418553 0.0151984105
000290 b0 3d 32 bd 58 b4 ac bc a5 55 eb bc a4 09 db 3c
       -0.04351586 -0.021082088 -0.028727362 0.026737995
0002a0 bc dc 2f 3d b4 c7 17 bd 79 0b e1 3c 16 c2 4b 3c
       0.042935118 -0.037055686 0.02747129 0.01243641
0002b0 b0 b4 f0 ba f6 0c f0 bc 97 a6 db 3b 79 a6 25 3d
       -0.0018364396 -0.029303055 0.0067032087 0.040441964
0002c0 b6 1a 87 bc df bd c0 bc da 02 1c bc 1f a6 73 39
       -0.016492229 -0.023528038 -0.009522164 0.00023236171
0002d0 86 51 a7 3c f9 e3 a7 3c 1a 88 ed 3c 06 9e 5f bc
       0.020424616 0.020494448 0.028995562 -0.013648516
0002e0 a5 00 87 3c 58 16 6d 3c e3 1b 31 bc 96 68 4a 3c
       0.0164798 0.014470659 -0.010809871 0.012354037
0002f0 7b bc 11 bd 7d e1 36 bb 37 49 05 3d d8 6a 09 3c
       -0.03558014 -0.0027905398 0.032540526 0.00838729
000300 ca 1e 6d bc 1c 35 05 3d 99 ce 08 ba 5e d1 a5 3c
       -0.014472673 0.032521352 -0.0005218774 0.020241436
000310 46 f8 03 bd a4 e3 3c 3c a9 61 89 bc 0c 7f 74 ba
       -0.032219194 0.011528883 -0.0167702 -0.0009326793
000320 ed 28 08 bd 5f e2 be 3c 19 43 0a 3d e5 76 9d 3b
       -0.033242155 0.023301302 0.033755396 0.004805433
000330 9f 27 ba bc eb 79 e5 3c 87 41 84 bb 75 9d 3b 3c
       -0.022723971 0.028012237 -0.004036132 0.011451115
000340 10 a5 f5 ba 51 16 18 3d a3 64 b8 3c 0a 3e 57 3c
       -0.0018741209 0.037130658 0.022508925 0.01313735
000350 ab 4c 1b bb b7 5f 54 3c b4 92 03 bd 3e df f2 3c
       -0.002369682 0.012962273 -0.03212233 0.029647466
000360 d5 5f 32 bd 51 1c 35 3d bc 26 31 3c a0 3f 17 bc
       -0.043548424 0.044216458 0.010812458 -0.009231478
000370 75 12 96 3c 99 19 08 bd a2 bb e5 3c 35 c6 08 bd
       0.018319348 -0.033227537 0.028043572 -0.03339215
000380 ca ad fa bc c3 d4 b9 3c de 5a e5 3c 1e 54 24 3d
       -0.030600447 0.02268446 0.02799743 0.040119283
000390 a8 f8 2b 3d 65 cc 0f 3d a0 84 b4 ba dd 1a 2d bc
       0.041985184 0.035107035 -0.0013772435 -0.010565487
0003a0 07 6c ae ba 7c c7 ba 3c 3d 68 31 3d 3d 83 8c 3c
       -0.0013307341 0.0228002 0.0433123 0.017152423
0003b0 b1 11 b0 bc eb a5 31 3d 36 24 a2 3c dc 9a bc 3b
       -0.02149281 0.043371122 0.019792657 0.0057557654
0003c0 9a 58 26 3d 6c c5 81 ba 66 f2 a4 3c 43 7f fc bc
       0.04061184 -0.0009900755 0.020135116 -0.030822402
0003d0 d2 c5 2c bc 23 32 6e 3c a1 4a cc 3b 2a 65 f4 3c
       -0.010545211 0.014538321 0.0062344824 0.029833395
0003e0 e4 ba 0f bc a8 f8 bc 3c c3 6c d8 3c 0c 21 ca bc
       -0.008772586 0.023067787 0.02641905 -0.024673961
0003f0 fc 0d f5 3c 6e e7 9b bc 74 9c 5d bc f3 f9 c7 3c
       0.029913895 -0.019031253 -0.013526071 0.024411177

base_model.model.gpt_neox.layers.0.attention.query_key_value.lora_B.weight f4 [1536, 16]
000000 75 cf bb 39 d5 a9 d0 36 89 54 86 ba eb 30 d3 b9
       0.00035821987 6.218654e-06 -0.0010248582 -0.00040281503
000010 6a 45 16 3a 34 40 c8 b7 b2 f6 80 3a f9 c9 75 39
       0.00057323894 -2.3871755e-05 0.0009839146 0.00023440261
000020 b6 9b b6 b9 68 b4 bd 3a 79 e4 a4 ba 0a e3 5d b9
       -0.0003482976 0.0014473321 -0.0012580297 -0.00021160781
000030 24 2e 94 ba 72 a8 b1 39 b6 da 54 b9 f7 ca 11 39
       -0.0011305255 0.00033885572 -0.00020299372 0.00013903888
000040 6c 4f a1 ba cc 73 11 b9 2f 91 6e ba 84 ab e6 b9
       -0.0012306995 -0.00013871415 -0.00091006135 -0.00043996808
000050 3d a3 09 3a c1 6c 87 3a 28 f9 97 b9 62 dd a4 ba
       0.00052504597 0.0010332094 -0.000289866 -0.0012578184
000060 d4 6d 7a b9 2f 68 54 b9 f4 26 bd ba fb 68 60 ba
       -0.00023882772 -0.00020256707 -0.0014431165 -0.0008560565
000070 a7 69 05 3a 6a 3c a9 39 1a 60 36 ba 1c 24 b4 ba
       0.0005089291 0.00032279204 -0.0006957069 -0.0013743672
000080 94 a7 a4 ba 92 83 cf 39 0d b1 27 ba 99 4e 2b ba
       -0.0012562149 0.00039580144 -0.0006396927 -0.0006534844
000090 04 e2 b0 39 28 cf 84 39 d2 49 79 3a 1c 55 62 ba
       0.0003373773 0.00025331345 0.0009509596 -0.0008633898
0000a0 0c 1f 8b 3a ff 69 ae b9 04 fc 5f ba a5 14 ba b9
       0.0010614111 -0.0003326684 -0.0008544328 -0.00035492066
0000b0 e5 b1 98 3a 2e b5 86 39 8b db 25 ba a2 f4 53 ba
       0.0011649696 0.0002569346 -0.0006326965 -0.00080854644
0000c0 9a cc bf b9 74 6d 96 3a c0 36 6f b9 cb d7 9a 3a
       -0.000365828 0.0011476711 -0.00022813212 0.0011813579
0000d0 82 d1 b2 3a 06 45 b0 3a 7b 40 9e ba 83 d9 39 3a
       0.001364276 0.0013448305 -0.001207366 0.0007089602
0000e0 ae 40 3a ba 34 8b 99 ba b0 37 5e 38 0b 51 a1 ba
       -0.0007104975 -0.0011714459 5.2980788e-05 -0.0012307478
0000f0 b1 a5 79 ba f7 f4 13 3a 51 8f 3f b9 3f 80 ab 3a
       -0.0009523286 0.00056441076 -0.00018268569 0.0013084485
000100 11 90 b7 3a 92 29 a2 ba 94 17 be 38 0d cf af ba
       0.0014004727 -0.0012372008 9.064298e-05 -0.0013413146
000110 f2 1e 8e b9 4d 80 aa ba 30 3b a4 ba 35 94 86 b9
       -0.00027107407 -0.0013008207 -0.0012529846 -0.00025668895
000120 0d f1 8f ba 46 5f ab 3a d1 ec 29 ba e5 12 b6 3a
       -0.0010981873 0.0013074658 -0.0006482127 0.0013891129
000130 01 21 77 b9 54 56 b1 ba bc 50 e7 b9 10 fd 4a b9
       -0.0002356805 -0.0013529756 -0.00044119905 -0.00019358494
000140 ac c7 5a 3a 80 45 96 b7 c0 0d 3e 3a a6 3a 4b 3a
       0.00083457935 -1.7913757e-05 0.0007249974 0.0007752575
000150 60 6e 3d 3a 20 8b 7b ba 00 4b 7a ba 54 c3 26 3a
       0.0007226225 -0.00095956214 -0.0009547919 0.00063615036
000160 e6 fc fe 39 55 d7 46 ba e9 06 52 3a 44 44 8a ba
       0.0004863508 -0.00075851876 0.0008011894 -0.0010548909
000170 bf 6e 35 ba 28 87 61 ba 3e a2 00 b9 a9 77 37 3a
       -0.00069211045 -0.00086032087 -0.00012267471 0.0006998727
000180 24 9f 6a 3a 04 68 4e 3a 5b 70 74 3a 5d 78 68 3a
       0.00089501054 0.0007873776 0.00093246036 0.0008868033
000190 be 92 75 3a db a5 51 3a 2d c7 78 ba db 40 34 3a
       0.00093678746 0.00079974317 -0.0009490129 0.00068761193
0001a0 47 db 10 b8 95 a2 47 ba c2 87 53 3a d5 51 a9 ba
       -3.4536493e-05 -0.0007615474 0.0008069241 -0.0012918065
0001b0 11 a0 6d ba 91 05 3d ba eb c8 7e b9 f1 a2 8d 3a
       -0.0009064684 -0.00072106073 -0.00024298175 0.0010806007
0001c0 9f 22 96 ba 7b 25 3b 3a 30 55 b4 3a 91 97 db 39
       -0.001145441 0.0007139069 0.0013758298 0.0004188386
0001d0 9b 4c 2b ba 06 92 19 3a 03 39 89 ba 8e c4 52 3a
       -0.00065345474 0.0005858246 -0.0010469261 0.0008040153
0001e0 77 4d 91 3a 7e 06 0f ba d0 da 85 ba fa dd 0f ba
       0.0011085708 -0.00054559845 -0.0010212306 -0.0005488094
0001f0 70 d1 98 3a 54 6c 9a 39 e5 af a0 39 ac f3 34 ba
       0.0011659097 0.0002945388 0.0003064863 -0.0006902765
000200 96 26 be 3a e1 23 86 ba f5 4a 46 3a e2 fc 4a 3a
       0.0014507349 -0.0010234081 0.000756427 0.0007743371
000210 0e 0c 52 3a 12 7c a8 3a be ad 6f 39 ed 8c 38 b9
       0.00080126605 0.0012854359 0.0002285754 -0.00017600106
000220 f2 90 1d b9 9f 4e 51 ba 92 41 4c 3a 8c ab 0e b8
       -0.00015026683 -0.0007984433 0.0007791753 -3.4015204e-05
000230 a1 42 8a ba 68 70 4e ba 1b 75 a9 ba 32 a9 6b 3a
       -0.0010548421 -0.0007875026 -0.0012928577 0.00089897506
000240 59 8c 9c 3a 28 09 9a ba 20 66 88 3a 17 b8 4b 3a
       0.0011943682 -0.0011751996 0.0010406412 0.0007771267
000250 a2 34 46 3a 9c 31 5e ba a5 80 40 ba e4 cb 87 3a
       0.00075609435 -0.00084760203 -0.0007343388 0.0010360447
000260 32 1e 2c ba ac 02 47 ba 1a 50 83 3a c4 b8 82 ba
       -0.0006565779 -0.00075916457 0.0010018379 -0.0009973277
000270 5d 1b 5b ba 24 0b de 39 ae 16 18 39 51 e2 59 3a
       -0.00083582645 0.0004235144 0.00014504298 0.0008311617
000280 de 3d 93 ba 51 c1 9c b9 02 60 a8 ba b9 2c b5 b9
       -0.0011233648 -0.0002989867 -0.0012845995 -0.0003455633
000290 68 89 e0 36 aa 12 77 3a 3c 31 31 ba 29 8e 4e ba
       6.6917164e-06 0.00094250834 -0.00067593507 -0.000787946
0002a0 ae 99 b2 ba cc 80 aa b7 d6 3b 59 ba 07 a0 05 3a
       -0.0013626122 -2.0325555e-05 -0.00082868093 0.00050973933
0002b0 18 61 98 ba f4 43 67 3a cf d6 b3 ba 31 4b 9e 3a
       -0.0011625616 0.00088220765 -0.0013720634 0.0012076852
0002c0 39 11 1d b9 ba 7f 34 39 d2 cc ac 3a fc 41 84 39
       -0.00014979103 0.0001721372 0.00131836 0.00025226164
0002d0 72 46 3a 39 58 f6 11 b8 a7 fa 9a ba e4 b1 7b 3a
       0.00017764585 -3.480012e-05 -0.0011823968 0.0009601398
0002e0 a4 ac bb 3a 65 55 41 b9 20 ae 3c b5 d2 ad ab b9
       0.0014318419 -0.00018437726 -7.028884e-07 -0.00032745168
0002f0 cc f1 9e 3a fc 60 f5 b8 79 4f 08 3a ec ae eb 38
       0.0012126504 -0.00011700575 0.00051998306 0.00011238255
000300 f1 8c 69 38 bf 7b 80 39 d0 08 d1 b9 86 18 d7 38
       5.568279e-05 0.0002450626 -0.00039870152 0.00010256567
000310 35 0b 8c ba 0b 2c a7 ba 10 7c d7 39 0f 54 d6 b8
       -0.0010684492 -0.0012754215 0.0004110043 -0.00010219972
000320 ad 08 4c 3a 60 f6 d9 35 a0 c7 92 3a fc c5 9d b9
       0.0007783275 1.6239464e-06 0.0011198409 -0.00030092883
000330 8d 0b a2 3a c7 38 0c b9 d4 f1 87 3a 92 9d 84 ba
       0.0012363062 -0.00013372592 0.0010371753 -0.001011776
000340 fc 38 45 ba 8f 3f 70 3a ba 3e df b9 65 b6 39 3a
       -0.0007523445 0.00091647444 -0.0004258061 0.0007084369
000350 03 92 5e 3a 72 dd 92 3a c0 5c 6a ba 6f db 60 3a
       0.00084903854 0.0011204912 -0.00089402124 0.000857762
000360 1c 35 96 ba c0 ef 08 39 5d c3 23 39 eb c8 58 ba
       -0.001145992 0.00013059285 0.0001561767 -0.0008269685
000370 6a 1a ab ba 09 ba 65 3a 2a aa ac ba d0 10 9b 3a
       -0.0013054137 0.0008763378 -0.0013173271 0.0011830572
000380 57 c9 b5 ba 9f fb 95 3a 8a 34 c3 b9 86 cd 56 3a
       -0.0013869208 0.0011442787 -0.00037232443 0.00081940775
000390 e7 d3 81 3a f3 36 9b 3a 2b d2 bf b9 60 35 93 36
       0.0009905071 0.0011841938 -0.00036586946 4.387155e-06
0003a0 d1 2f 96 ba b1 f5 77 ba e6 89 fe 39 94 63 79 ba
       -0.0011458342 -0.0009458913 0.00048549398 -0.00095134345
0003b0 79 45 a0 ba b7 bf bb 3a 17 48 b2 ba e2 bb 94 3a
       -0.0012227736 0.0014324103 -0.0013601807 0.0011347497
0003c0 ae 58 77 ba e7 e0 8e 3a 7e 89 00 39 cc 46 cd b8
       -0.00094355165 0.0010900766 0.00012258251 -9.788349e-05
0003d0 63 19 c3 b9 e8 89 15 b6 cd 7c 9e 3a ce 28 46 ba
       -0.00037212213 -2.2283002e-06 0.0012091637 -0.0007559181
0003e0 84 1e 44 38 ea d6 88 ba 30 d7 ac 39 c3 5a a0 3a
       4.675846e-05 -0.0010440026 0.00032966724 0.001223408
0003f0 e8 11 a8 36 b9 cb 96 b9 01 7a 1e 39 f8 f8 8e ba
       5.0088747e-06 -0.00028762015 0.00015113504 -0.0010907939

base_model.model.gpt_neox.layers.1.attention.query_key_value.lora_A.weight f4 [16, 512]
000000 1b 52 db 3a 24 8c c6 bc 6a 89 0b 3d 08 22 0c bd
       0.0016732843 -0.024236746 0.034066595 -0.034212142
000010 ec 73 0c bd 4f 21 2d bc 86 f4 a6 bc e2 83 09 bc
       -0.03429024 -0.010567023 -0.02038027 -0.00839326
000020 62 fc cd 3c 40 43 a0 3c b8 77 f5 bc 08 0d 0c bd
       0.02514476 0.019563317 -0.029964313 -0.034192115
000030 86 df a1 3b 3f 04 43 bc f5 e6 f3 3c 8b d3 97 3b
       0.004939976 -0.011902868 0.029773215 0.004633372
000040 1d 0e db bc f3 dc db bb 33 bf 2d bd d8 3b ba bb
       -0.026740128 -0.006709689 -0.04241867 -0.0056834035
000050 a5 c1 24 bd 3f 59 17 3d 8b ac e1 3c 17 6f 2d 3c
       -0.040223736 0.036950346 0.027548095 0.010585568
000060 a1 04 fa 3b c9 0a 95 bb b9 28 17 3c 3f c7 41 bc
       0.0076299463 -0.004548405 0.009226018 -0.011827289
000070 75 a2 dd 3c 8a bd f0 3c 71 08 3b 3c 49 6e 88 3c
       0.027055005 0.029387254 0.011415587 0.01665415
000080 0d 5f 9f bb 1d aa c9 bb 12 5f 97 3c b9 ff 4d 3c
       -0.004863626 -0.0061543123 0.01847795 0.012573176
000090 90 cb e5 bc 4e 40 05 3d ac 05 d3 bc 73 15 14 bd
       -0.028051168 0.03253203 -0.02575954 -0.036153268
0000a0 97 24 1c bc 6a 23 bc 3c e7 11 08 bd 88 20 be bc
       -0.009530208 0.022966105 -0.033220198 -0.023208871
0000b0 ab 4a 8b 3c 2f 59 33 bd 9f db 0d bd 06 87 5d bb
       0.017003378 -0.043786224 -0.034633275 -0.0033802404
0000c0 21 aa e4 bb 82 cb af 3c 16 1d 21 3c 5a 56 f6 3c
       -0.0069782888 0.021459345 0.009833595 0.030070473
0000d0 5b 84 a6 bc 40 d0 36 bb c4 d5 2c 3d f6 b3 c2 bc
       -0.020326784 -0.0027895123 0.04219605 -0.023767453
0000e0 c7 47 65 bc 2a 88 8e bc 4d 10 d7 bc 8a 9d 2c 3d
       -0.013994164 -0.017398912 -0.02625289 0.04214243
0000f0 60 f5 fb 3c 2a 1e 2a 3d 1a e5 b1 bc 42 1e c7 bc
       0.030756652 0.041532673 -0.02171569 -0.02430642
000100 0c db 69 bc 58 12 3d bc 08 20 18 bc f9 a3 cf 3c
       -0.014273416 -0.011540018 -0.009284981 0.025346743
000110 71 1e 33 3d bd a5 33 bd f5 d4 89 bc ef a3 16 bd
       0.043730203 -0.043859232 -0.016825179 -0.036777433
000120 2f 0d ca 3c 87 57 e6 bc d2 f3 e6 bb 92 33 95 3c
       0.02466449 -0.028117908 -0.0070481086 0.018213067
000130 f3 43 fb 3c c6 bf 1b 3d 92 81 0b bd f0 49 13 bc
       0.03067205 0.038024686 -0.034059115 -0.008989796
000140 5c 70 ca 3c 3a 03 d1 3b 10 75 7d bc 28 53 09 bd
       0.02471178 0.0063785585 -0.015469804 -0.03352657
000150 e3 32 d4 bc c7 e2 87 bc df 6a 14 3d 0a fe f8 bc
       -0.02590317 -0.016587628 0.036234733 -0.030394573
000160 ff 6b 04 3c 96 6d 03 3d a4 c1 fd bc b6 85 bf bc
       0.008082389 0.03208693 -0.030976124 -0.023379188
000170 52 cb 8e bc 6d c4 e9 3c f2 e9 31 bd c0 9a 83 bc
       -0.017430935 0.028536046 -0.043436 -0.016065001
000180 ce 9d b5 3c e4 bc 28 3d 2f c7 9e 3c 09 13 83 3c
       0.022169974 0.041195765 0.019382088 0.016000288
000190 28 9f 98 bc a9 5c a5 3b ae 66 97 ba 82 81 6f 3c
       -0.01863058 0.0050464463 -0.0011550987 0.014618279
0001a0 10 83 c7 3c 04 0e 9c 39 27 97 1d bd 33 7a ef bc
       0.024354488 0.0002976508 -0.03847423 -0.029233074
0001b0 2c d5 c6 3c 07 6c f2 3b f3 f3 85 3c 39 0a 25 bd
       0.02427157 0.007398132 0.016351676 -0.040292952
0001c0 c5 2d 83 3c ca c9 24 3d 1e 27 4e 3b 91 d2 fe bc
       0.016013036 0.040231504 0.003145642 -0.031106265
0001d0 e8 6f b0 3c 26 08 fa bc 2b 40 03 3c 0c 2f 2b bd
       0.021537736 -0.030521464 0.008010904 -0.041792914
0001e0 21 0e 33 bd b4 62 3d bc 9e d6 1b bb ee 9d 11 bd
       -0.043714646 -0.011559177 -0.0023779045 -0.035551004
0001f0 94 f3 55 bc fa 29 d4 3c ba 38 1b 3c fd 7e 01 3d
       -0.013058562 0.025898922 0.009473974 0.031615246
000200 23 bd 6a 3b 5a bc c7 3c a2 39 60 bc 26 0b 22 bd
       0.00358183 0.024381805 -0.013685616 -0.039561413
000210 a0 d9 bf 3a 27 0e 14 3d 71 80 05 bd 35 ec f8 bc
       0.0014637001 0.03614631 -0.032593194 -0.03038607
000220 a4 d6 22 bb 03 7c 2e bd f7 4d f6 3c 8f 4c dc 3b
       -0.0024847174 -0.042598736 0.030066473 0.0067229937
000230 40 02 3b 3c 0a 81 0e bd 94 ee 2e 3d f2 04 b8 3b
       0.011414111 -0.03479103 0.042707995 0.005615824
000240 c0 7f 56 bc 8f c8 ac 3b 34 b3 c0 bc 27 c9 04 3d
       -0.013091981 0.005272932 -0.02352295 0.032418396
000250 86 fb cd 3c d5 d9 c8 bc da 8a 96 3c bd 5a 07 3d
       0.02514435 -0.024517933 0.018376756 0.03304552
000260 f3 1b d7 3c 82 a1 97 3b 33 f9 40 3c 8f 90 22 3d
       0.026258444 0.0046274075 0.011778164 0.039688643
000270 96 18 30 bc af 92 49 bc 3c ed 0b 3c 7b a6 d7 3c
       -0.010748049 -0.0123030385 0.008540448 0.026324501
000280 98 d4 e2 bc 02 07 04 bd fc 4b cc bb 6f c2 fe 3c
       -0.027689263 -0.032233246 -0.006234644 0.031098573
000290 88 08 82 3c d6 71 26 3c 3f 93 1c 3b 25 5e a3 3b
       0.015873209 0.010158977 0.0023891476 0.004985588
0002a0 0f d3 c4 3c b3 61 24 3d e4 b5 90 bc 3c f1 c2 3c
       0.024026422 0.040132236 -0.017664857 0.02379667
0002b0 da bf bc bc b8 18 86 3c 7c 50 03 3d 7c 0b 94 bc
       -0.0230407 0.016369209 0.032059178 -0.018071882
0002c0 cb 00 fa 3c 52 5a a4 bb d3 42 1f 3d ab 72 c7 3b
       0.030517956 -0.00501565 0.038882088 0.0060866675
0002d0 21 95 9b 3b 35 a2 07 bd f5 e2 87 bb 55 5c 0c bd
       0.004748002 -0.033113677 -0.0041469284 -0.034267742
0002e0 94 83 24 3d 34 11 ff bc 1e 39 08 3d 59 22 6c 3b
       0.040164545 -0.031136133 0.033257596 0.0036031215
0002f0 7d 94 13 bc 0f e9 65 bc c4 35 e5 bc fb 21 3b bb
       -0.00900757 -0.014032616 -0.027979739 -0.002855419
000300 9a cc fc bc 29 95 93 bc 8d f4 10 3d 31 87 17 bc
       -0.03085928 -0.018015461 0.03538947 -0.009248541
000310 4c 9c 36 3d 57 03 32 ba a3 50 aa bc 8f ae 01 bd
       0.04458265 -0.0006790659 -0.020790404 -0.031660613
000320 64 ec ec 3c bb 2d 6b 3c 07 9d 55 bc 64 31 32 bc
       0.028921314 0.014354165 -0.0130379265 -0.010876033
000330 69 27 44 bc 1e 6f 14 bd c9 8e 17 bc b5 0a 59 3c
       -0.011972287 -0.036238782 -0.009250351 0.013247182
000340 95 7f 01 bd 5c 2b 12 3d c3 bc 32 3d df e2 28 3c
       -0.031615812 0.035685882 0.04363705 0.0103079965
000350 f9 73 7d bb c6 8d 05 3d e2 bf 33 3c 6f e4 df bc
       -0.0038673861 0.03260591 0.010971041 -0.027330605
000360 c6 a6 29 3d 34 fd 24 3c db 1f e7 3c 50 fc 01 bd
       0.041418813 0.010070134 0.028213432 -0.031734765
000370 7e 13 31 3c 34 4f 1c 3c 19 fe 7b bc 87 48 fc bc
       0.01080787 0.009540368 -0.015380406 -0.030796302
000380 32 fa 2b bc ba 77 b4 bb 0a 05 d9 ba c3 2f 33 bd
       -0.010496663 -0.0055074366 -0.0016557288 -0.04374672
000390 2d 57 26 bd 18 f1 9d 3b 0c 22 01 3c 1f 1b 1f bd
       -0.04061048 0.0048200004 0.007881653 -0.038844224
0003a0 9f ac 06 3d 73 50 aa bc b7 9f 19 3d ef a6 00 3c
       0.032879468 -0.020790314 0.03750583 0.0078523
0003b0 1a 9f 8e bb 77 63 ef bc e5 76 33 3c 71 15 31 bd
       -0.0043524625 -0.029222233 0.01095364 -0.04323334
0003c0 04 b0 f6 3c f3 53 f0 ba 3d fb c9 3c 53 a3 06 bc
       0.030113228 -0.0018335566 0.024655933 -0.0082176505
0003d0 f8 e7 06 bd 69 5b 00 bd c7 82 d1 3c 45 ba 00 bd
       -0.032936066 -0.031337176 0.025575055 -0.03142764
0003e0 9b d2 a4 bc 0a d6 29 3d 09 b7 1d bd 81 bb d4 bc
       -0.020119956 0.04146389 -0.038504634 -0.025968315
0003f0 d1 fa f3 3c 93 ad 00 3d 71 e3 e3 3b be 2a 63 3c
       0.029782685 0.031415533 0.0069546034 0.013865171

base_model.model.gpt_neox.layers.1.attention.query_key_value.lora_B.weight f4 [1536, 16]
000000 a5 5c 88 ba 82 e9 ae 3a 03 bf e9 b9 f2 f5 d4 39
       -0.0010403587 0.0013344737 -0.00044583538 0.00040619035
000010 0f 54 a7 39 6b 39 99 ba a9 6a 8d 3a 49 56 b4 b9
       0.0003191535 -0.0011690086 0.0010789233 -0.00034396563
000020 97 6e 89 ba d6 d2 94 ba 57 7e 9a 3a fe 48 45 ba
       -0.0010485229 -0.0011354338 0.001178692 -0.00075258303
000030 d0 05 42 39 69 18 8f ba 49 a7 97 3a a1 1f 4a ba
       0.00018503447 -0.0010917309 0.0011570241 -0.00077104016
000040 c5 ed 97 ba 2b 67 60 ba fb ce 4c 39 58 31 6d ba
       -0.0011591247 -0.0008560295 0.00019532062 -0.00090481853
000050 42 74 21 ba f6 07 97 3a 76 a8 a3 ba d4 30 b0 3a
       -0.00061589864 0.0011522758 -0.0012486118 0.0013442286
000060 86 fc 18 3a 97 f2 71 ba af 5b 83 ba b3 c7 23 ba
       0.0005835969 -0.0009229569 -0.0010021831 -0.0006247714
000070 f5 ba 4e 3a 52 b3 5b b9 83 03 c4 38 04 37 8a 3a
       0.0007886135 -0.0002095227 9.3466624e-05 0.001054496
000080 95 91 33 3a fe af f7 38 c3 a3 9f 39 8a 14 2f 3a
       0.00068500015 0.00011810659 0.00030448855 0.0006678781
000090 ba b6 28 b9 39 41 74 ba b3 02 79 ba 6a 81 35 ba
       -0.000160898 -0.000931758 -0.00094989984 -0.0006923886
0000a0 6c b4 1f ba 03 4c 3d b9 d7 e4 9e 39 96 75 a6 ba
       -0.00060922536 -0.00018052761 0.00030306607 -0.0012699838
0000b0 a9 28 1b 38 25 85 0a ba 6d a8 79 b9 78 8b 97 39
       3.6992747e-05 -0.00052841223 -0.00023809234 0.00028904877
0000c0 4d 0f 0f 3a 1c 6b 24 3a fd 30 5c ba fe a0 33 3a
       0.0005457297 0.0006272064 -0.0008399634 0.0006852298
0000d0 de 1d 2b 3a 1e 53 67 3a 3f 67 7b 39 db 90 4b ba
       0.0006527583 0.0008824336 0.00023975688 -0.00077654206
0000e0 61 54 15 ba 74 ec 52 3a 86 2c 75 39 ad 54 38 ba
       -0.00056964724 0.00080460985 0.00023381607 -0.00070316606
0000f0 04 fc 8c ba c5 63 24 3a da ce 89 b9 c0 58 67 ba
       -0.0010756259 0.00062709703 -0.00026284793 -0.00088251755
000100 13 67 be 39 e2 2e 30 ba 11 aa 06 3a e5 1d bc 39
       0.0003631642 -0.0006720853 0.0005137036 0.00035880427
000110 9f 1c c8 38 22 ec 91 ba e3 a3 a7 ba e1 c1 56 3a
       9.542074e-05 -0.0011132995 -0.0012789931 0.00081923424
000120 3e 01 d2 39 f0 28 81 ba 4b e1 94 ba fa 58 fa 39
       0.00040055247 -0.0009854119 -0.0011358646 0.00047750009
000130 04 10 8c 39 8b 33 72 ba 01 56 b2 37 8f 6a 07 ba
       0.00026714813 -0.0009239248 2.1259302e-05 -0.000516572
000140 38 1a ce b8 90 16 aa b8 cd ea 7e 39 6b ca 23 3a
       -9.827729e-05 -8.110434e-05 0.00024310798 0.0006248119
000150 1c f0 a0 3a b1 23 6f 3a 7f df a2 3a 68 76 9d ba
       0.001227859 0.0009122445 0.0012426226 -0.0012013437
000160 14 62 b3 3a 64 ff 95 3a 56 95 92 3a a1 c1 88 ba
       0.0013685846 0.001144391 0.0011183422 -0.0010433682
000170 bf 5f b8 3a 38 35 ba 3a 77 ae 58 39 57 22 80 38
       0.001406662 0.0014206534 0.00020664358 6.109912e-05
000180 7e 55 84 b9 35 71 75 b9 ce a3 ad 3a 2e 06 09 ba
       -0.000252407 -0.00023407194 0.001324767 -0.0005227056
000190 35 92 a4 ba 3c 40 30 ba 7d a8 92 ba be a0 2e 3a
       -0.001255578 -0.0006723439 -0.001118913 0.00066615257
0001a0 62 62 bf 3a 99 b4 4c 3a 37 8d 78 3a 36 43 84 b9
       0.0014601464 0.00078088936 0.0009481492 -0.00025227078
0001b0 6c d8 c6 b8 ae ba 9d b9 26 f9 bc ba fc bf 2f 3a
       -9.4816874e-05 -0.0003008446 -0.0014417514 0.0006704328
0001c0 48 af 33 ba a4 7b c8 39 6a b1 41 3a 2f 09 ca b9
       -0.0006854427 0.00038239092 0.00073888025 -0.00038535285
0001d0 15 65 c2 b9 b7 62 48 ba 7e ff 04 ba c2 7d 84 3a
       -0.00037077875 -0.0007644104 -0.00050734717 0.001010828
0001e0 8f 9d 39 3a a9 ca 96 b8 ad 8e 11 ba d9 3b 11 b9
       0.0007080668 -7.190306e-05 -0.00055525714 -0.00013850573
0001f0 1d b8 10 b9 6b b1 c7 b8 60 44 5d ba 62 20 d3 39
       -0.00013801498 -9.522106e-05 -0.00084406696 0.00040269183
000200 c8 bc 06 ba ac 19 86 ba c4 ad 83 b9 a9 16 91 b9
       -0.0005139825 -0.001023104 -0.00025115733 -0.00027673438
000210 04 78 6f b9 ec 41 70 ba ba 5a c2 b8 e4 d1 9c 39
       -0.00022837525 -0.00091650966 -9.26754e-05 0.0002991102
000220 3b 24 82 ba ec 5e 6d b9 dd 4b ff 37 94 60 95 ba
       -0.000992901 -0.00022637442 3.0433695e-05 -0.001139658
000230 be 7a f3 b8 6c fd a6 ba a3 04 af 3a a0 20 5a 39
       -0.000116100055 -0.001274032 0.0013352822 0.00020802254
000240 79 e8 30 3a 48 24 44 3a b5 e9 73 39 df df 5a 3a
       0.00067485083 0.0007482213 0.00023261349 0.00083493994
000250 28 2e 0a b9 82 35 c0 38 82 cc ae 3a e0 90 82 ba
       -0.000131779 9.16524e-05 0.0013336095 -0.0009961389
000260 e7 43 49 39 6f c9 39 3a 5a 82 83 b9 e0 43 b9 3a
       0.0001919415 0.0007087206 -0.00025083387 0.0014134608
000270 48 dc b3 3a 14 57 64 3a 5f 21 aa b7 2c 63 81 ba
       0.0013722265 0.00087104854 -2.0281119e-05 -0.0009871474
000280 b6 03 9f 3a 58 f0 6e 3a 5a 1d cb 39 ad fd a0 3a
       0.0012131843 0.00091147935 0.00038741046 0.0012282633
000290 48 e8 9e 3a d6 7b 1b 3a 82 ef 8f 3a e4 5a 39 ba
       0.0012123669 0.0005931234 0.0010981413 -0.00070707337
0002a0 04 04 a2 39 6e 07 99 39 7a 51 c9 38 71 f2 69 ba
       0.0003090204 0.0002918797 9.599603e-05 -0.0008924371
0002b0 c9 8b 91 39 c6 a1 85 b9 e4 27 c9 b9 5d 88 3d ba
       0.00027760703 -0.00025488267 -0.00038367428 -0.00072300975
0002c0 a8 57 9f 3a fb 09 8a 3a 74 e9 aa 3a 97 e9 85 3a
       0.0012156861 0.0010531539 0.0013039545 0.001021671
0002d0 a6 17 b2 3a 5b b4 b4 3a 6c 0a bc 3a 13 10 c0 ba
       0.001358737 0.001378666 0.0014346368 -0.0014653228
0002e0 9b 26 a8 3a a9 80 b5 3a be 9d 27 ba 53 39 52 ba
       0.0012828888 0.0013847548 -0.000639405 -0.0008019406
0002f0 c2 fe b3 3a eb 39 07 3a 1e 95 2a 39 6a 35 f8 b9
       0.001373254 0.0005158472 0.00016268014 -0.00047342043
000300 86 39 33 ba da 51 08 39 b9 a3 ff b8 a9 a0 4f 39
       -0.000683688 0.00013000463 -0.00012189843 0.00019800909
000310 72 89 74 38 23 43 97 39 26 0f 7a 3a 8b 3c a1 b9
       5.830214e-05 0.00028850985 0.00095390005 -0.0003075342
000320 46 38 45 3a be b7 82 ba 5d 36 79 39 e0 91 a6 ba
       0.0007523339 -0.0009972972 0.00023766742 -0.0012708269
000330 b6 d9 95 b8 b6 01 31 39 14 b3 26 ba 29 7c ac 38
       -7.1454255e-05 0.00016880673 -0.0006359082 8.224726e-05
000340 3a f8 0d b9 5d ef 06 b9 60 f0 a9 3a 86 2a 5e 3a
       -0.0001353928 -0.00012868406 0.0012965314 0.00084749644
000350 fd c7 fd b9 01 19 2c b9 9b 1a ae 3a 00 a7 98 ba
       -0.00048404923 -0.00016412513 0.0013283076 -0.001164645
000360 79 12 b8 3a e5 6f a5 3a d0 44 99 3a ce b5 9b b8
       0.0014043591 0.0012621848 0.0011693481 -7.42484e-05
000370 67 3f 8e 39 c6 9b 70 38 b0 79 b3 ba 87 f6 b5 3a
       0.0002713159 5.7365534e-05 -0.0013692882 0.0013882675
000380 70 54 14 3a ef bd 21 3a d0 71 89 b8 fe 8e e2 b9
       0.0005658334 0.0006169965 -6.553868e-05 -0.00043212617
000390 55 e7 a2 b9 c1 67 4a b8 9c 87 6b b8 9d c2 fe 39
       -0.00031071404 -4.825718e-05 -5.6154662e-05 0.00048591653
0003a0 db 77 02 ba eb d8 5b 3a 40 3e aa 3a fb 50 3e ba
       -0.00049769663 0.00083865103 0.0012988523 -0.0007259992
0003b0 21 4e 1a ba 17 74 84 b9 33 8f 26 ba b8 3f 08 3a
       -0.0005886276 -0.00025263496 -0.0006353736 0.0005197483
0003c0 7d 24 e9 39 ff 38 c0 39 89 ad 47 3a 8e 63 01 3a
       0.0004446841 0.0003666356 0.00076171063 0.0004935794
0003d0 c4 32 6b ba 05 d7 9c ba 21 42 aa ba e6 54 5a 3a
       -0.0008972103 -0.0011965936 -0.0012989679 0.0008328691
0003e0 13 e2 93 38 98 ee 8a ba 8f b9 88 ba ee ef b6 b9
       7.051616e-05 -0.0010599671 -0.0010431277 -0.00034892507
0003f0 f1 4f 68 39 aa b9 89 ba 62 ed 93 ba 57 54 4b 3a
       0.00022155025 -0.0010507603 -0.0011285956 0.0007756403

base_model.model.gpt_neox.layers.2.attention.query_key_value.lora_A.weight f4 [16, 512]
000000 f6 af 26 3d 12 79 1d bd 78 30 d5 bb 42 ed 87 3c
       0.040695153 -0.03844554 -0.006506022 0.016592626
000010 24 d9 31 bd 0a fd d7 bc c6 3b 95 bc 9d b0 44 3b
       -0.043419972 -0.026365776 -0.018216979 0.0030012496
000020 40 98 19 3d ef c3 4e bb 67 bd 19 3c 2e 37 80 3c
       0.037498713 -0.003154989 0.009383536 0.015651312
000030 09 73 0a 3d 83 1c 4d bc e4 74 a4 bc d3 07 fe 3c
       0.033801112 -0.012519005 -0.020075269 0.03100959
000040 c1 78 ce 3c 32 c7 2a bd 7c d9 33 bd 88 96 e9 3c
       0.025204064 -0.041693874 -0.04390858 0.028514162
000050 20 9a 16 bc f8 75 9f 3c c3 64 6f bb ce 0c 18 3d
       -0.00919202 0.019465432 -0.0036528565 0.037121587
000060 b8 70 24 3d 8c bb 15 3d ef 77 f1 ba 75 5c be 3c
       0.04014656 0.03655581 -0.0018422584 0.023237446
000070 75 97 7b bb 7c 69 ff 3b 47 01 05 3d b8 81 b7 ba
       -0.0038389836 0.007794557 0.03247192 -0.0014000451
000080 76 5e 62 bc e5 16 ae bb 2e 33 ba b7 fc a6 30 3d
       -0.013816467 -0.005312788 -2.219676e-05 0.043128
000090 00 88 9f 3c 56 12 1c bd 9b 45 af 3b 70 e5 91 3c
       0.01947403 -0.038103424 0.005348874 0.0178096
0000a0 1e 1a 28 3d 94 70 86 bc f1 b9 a4 3c 60 43 cd bc
       0.041040532 -0.016411103 0.020108195 -0.025056541
0000b0 bf 96 77 3a a1 05 10 3d 32 43 48 3c 70 ea 9e bc
       0.0009444765 0.03516162 0.012223052 -0.019398898
0000c0 63 cd 63 3b 84 d0 b0 bc 92 26 02 bd 8b 7c bb 3c
       0.0034759871 -0.021583803 -0.031775065 0.022886535
0000d0 38 31 19 3d 50 23 09 bd b2 31 de 3c e5 9d d6 3c
       0.037400454 -0.033480942 0.027123306 0.026198337
0000e0 5c 47 1c 3d ad 66 ce 3c 96 df ef bc 92 1c 56 bc
       0.03815399 0.025195444 -0.029281419 -0.013068335
0000f0 d6 b1 50 3c af d8 22 3c 73 8b 20 3d 2a 72 9c 3b
       0.012737712 0.009939357 0.03919549 0.0047743516
000100 06 6c 2f bd 2d c0 33 bd 8b 59 22 bd 18 8f 97 bc
       -0.04282763 -0.043884445 -0.039636176 -0.01850085
000110 df 2d 3c bc 60 f4 27 3d b1 00 39 bc be ce 05 3d
       -0.011485546 0.04100454 -0.011291669 0.032667868
000120 02 4f e9 3a 24 58 68 39 49 e2 02 bc e8 31 d9 3c
       0.0017800035 0.00022158079 -0.007988521 0.026513055
000130 1a a1 92 bc 8e ec d4 3a 05 0b 11 bd af 92 c0 3c
       -0.017899085 0.0016244815 -0.0354109 0.023507444
000140 8f 83 86 bc d7 44 79 ba 57 e1 3d bc 37 ee 8e 3c
       -0.016420154 -0.0009508854 -0.01158937 0.017447574
000150 3f d7 19 bd 37 82 22 3d 03 4a 8b bc 96 25 d1 3c
       -0.03755879 0.039674964 -0.017003065 0.025530618
000160 b3 e6 0b 3d dd 82 3c 3b 75 1f d2 bc 35 d6 50 bb
       0.03415556 0.0028764524 -0.025649766 -0.0031865959
000170 46 8c 5f bc 74 e9 ba bb 86 94 bb bc 65 31 f8 bc
       -0.013644284 -0.0057040993 -0.02289797 -0.03029699
000180 91 30 2d 3d 1c 72 c0 3b ce 29 e1 3c 75 bc 27 bb
       0.042282645 0.005872978 0.027485754 -0.0025594507
000190 60 58 0c 3d a2 1b da 3c 37 c6 2d 3d ae fc 17 3d
       0.03426397 0.026624504 0.04242536 0.03710621
0001a0 db 61 f3 bc 6b 36 c7 3c 1d 59 ab b9 72 63 1c bd
       -0.029709747 0.02431794 -0.00032682056 -0.038180776
0001b0 ff a1 10 3d 55 dd 31 bd ec 66 b1 3c 0b c8 cd 3c
       0.03531074 -0.04342397 0.021655522 0.025119802
0001c0 9e 84 ea bb 8e 27 80 3c db 38 2f bd 8f 1d 09 3d
       -0.0071569225 0.015643861 -0.04277883 0.033475455
0001d0 1e 6e b0 bc 18 25 38 bc fc ee 05 bd ea fe 0b 3d
       -0.021536883 -0.011239313 -0.032698616 0.034178652
0001e0 6e ef f6 bc ff 04 08 bd 58 db ac 3c 3b ff f1 3c
       -0.030143466 -0.03320789 0.021100685 0.029540649
0001f0 4b e8 13 3d 79 53 c4 3b 11 6e 2e 3d 29 ca 1c bd
       0.036110204 0.005991396 0.042585436 -0.038278732
000200 47 41 28 3d 14 22 32 3c 41 6d 17 bc df 57 18 bd
       0.04107788 0.010872383 -0.009242357 -0.037193175
000210 bb 3e 9a bb 88 b8 dc bb de 5e a8 3c 22 2d 3f bc
       -0.004707185 -0.006735865 0.020553049 -0.011668475
000220 b9 2e 6c 3c 8a b2 75 bc 07 f7 58 bc 4f 7b 88 bc
       0.014415436 -0.01499618 -0.01324249 -0.01666036
000230 3e b8 30 3d 19 b1 94 bb ef 64 06 bd 0d 40 29 3d
       0.043144457 -0.0045377132 -0.0328111 0.04132085
000240 b5 76 2b bb 82 36 82 3c 7a d6 5f bc 07 96 ab 3c
       -0.0026163284 0.015895132 -0.013661975 0.020945562
000250 e7 4c 6b bc 43 fa 0c 3d ee 56 00 bd fb c8 bf bc
       -0.014361597 0.034418356 -0.031332903 -0.023411265
000260 38 cb 34 3b a6 00 95 bc f1 2f f6 3c c5 ac 84 3c
       0.0027586948 -0.018188786 0.030052157 0.016195664
000270 1b 09 57 bc 54 02 6a 3c 15 df 25 bc 33 e9 10 3d
       -0.0131247295 0.014282782 -0.010123988 0.035378646
000280 e6 bc 0f 3d 20 1d ed 3c 21 b4 30 3d 37 2b 28 3d
       0.035092257 0.028944552 0.043140534 0.041056838
000290 cc ef 89 3c bd 8b e3 bc 8f 3d 5b bc 66 8e d8 3c
       0.016837977 -0.027776593 -0.013381376 0.026435088
0002a0 44 7e 0d 3c 4e 31 8c 3b 07 47 ed bc 77 1c da 3c
       0.008636061 0.0042783385 -0.028964533 0.026624901
0002b0 31 13 c3 3c 27 62 f3 3c 4f 1f a6 3c b9 70 1f 3d
       0.023812862 0.029709889 0.020278601 0.03892586
0002c0 18 e2 0e bd 78 f8 af bc af 5d 10 3d 19 85 14 bd
       -0.03488359 -0.021480784 0.035245594 -0.036259744
0002d0 92 87 b1 bc 91 06 45 bb 04 43 81 bc 59 3f 67 3c
       -0.02167109 -0.0030063728 -0.015779026 0.014114224
0002e0 a7 35 aa bc ef 3c 98 bc 43 62 bf bc 25 b1 69 bb
       -0.020777537 -0.018583743 -0.023362285 -0.0035658565
0002f0 70 5c 43 3c ab ca ad bc 0d 52 05 bd 59 45 9f bc
       0.011923894 -0.021214804 -0.032548953 -0.019442247
000300 d9 f5 15 bb c2 bf 8c bc 5a 56 a9 3c 56 cb ac bc
       -0.0022882132 -0.017181281 0.020671058 -0.021093052
000310 ae fd ba bc c8 eb bf 3c 16 44 73 3b 9d 2e 48 3c
       -0.022826042 0.023427859 0.003711944 0.012218145
000320 60 57 a0 3c 90 48 6b 3c 85 21 15 3d 50 e5 ad 3c
       0.019572914 0.014360562 0.03640892 0.021227509
000330 f5 9a bd bc 86 91 0c bd cf db 98 bc d1 58 49 3c
       -0.023145178 -0.03431847 -0.0186595 0.012289242
000340 0d 4d 0f bc 6e 8d 0d 3c 21 ee 81 bc c1 d5 2e bd
       -0.008746398 0.0086396765 -0.015860619 -0.04268432
000350 96 0c f1 3c 10 be 2f 3c 98 ab e4 bc 7c b5 d8 bb
       0.029424947 0.010726467 -0.027913854 -0.0066134315
000360 6c 35 ee bc c0 db e2 3c c9 ef 89 3c 31 23 0f bd
       -0.029078208 0.027692676 0.016837971 -0.03494567
000370 1e 23 55 bb 11 6a df bc 7e d2 f6 3c 98 ba 28 3d
       -0.0032522152 -0.027272256 0.030129667 0.041193575
000380 c3 cb 0f bc 36 3f 86 bc 9e ae dc 3c 0a fb 06 3c
       -0.008776608 -0.016387563 0.026938733 0.008238563
000390 5e c4 07 3d bb 59 cd bc 18 a4 5c 3c 11 0e 05 3d
       0.033146255 -0.0250672 0.013466857 0.032484118
0003a0 27 f4 e0 39 53 12 aa bc 92 de 6d bc ec d3 05 3d
       0.00042906517 -0.02076069 -0.014518397 0.032672808
0003b0 1e 19 7b bc 1c 6a b0 3c 7a 9f f3 3c f7 02 b1 3c
       -0.015325813 0.021534972 0.02973913 0.021607859
0003c0 7f 5d 3c bb c3 11 22 bd 89 a5 58 ba cb 33 a5 3c
       -0.0028742251 -0.03956772 -0.0008264413 0.020166298
0003d0 8a 5f a0 3b af ab 11 bc 61 86 21 bd 91 76 12 3d
       0.0048942016 -0.00889103 -0.039434794 0.035757605
0003e0 9e 2b ab 3b ef 52 04 3d 30 25 10 3d ed da db 3c
       0.0052237054 0.032305654 0.035191715 0.02683779
0003f0 a2 2e b1 bc 59 a9 30 3d e0 97 a1 3c 19 24 c0 bb
       -0.021628682 0.043130253 0.01972574 -0.005863678

base_model.model.gpt_neox.layers.2.attention.query_key_value.lora_B.weight f4 [1536, 16]
000000 2a b0 8e 3a 88 7c 19 38 35 11 b1 3a 02 ca 12 3a
       0.0010886241 3.659402e-05 0.0013509156 0.00055995595
000010 9d 29 fe 37 c1 a6 df 39 0e 67 27 3a 65 7f ac ba
       3.0298537e-05 0.00042658116 0.0006385901 -0.0013160525
000020 3f 06 af 39 55 cf 74 3a 75 d0 99 3a 36 9d 9e ba
       0.00033383255 0.0009338756 0.0011735099 -0.0012101296
000030 97 21 9d ba 6f 9e 2d ba 63 10 63 39 21 83 73 3a
       -0.001198816 -0.0006623035 0.00021654512 0.0009289254
000040 28 65 05 3a 2a ff 2d ba 27 8f d4 39 ea f8 4f 3a
       0.0005088621 -0.00066374487 0.00040542448 0.00079335144
000050 63 a1 a5 3a 5d 37 88 38 d5 d1 a1 3a 40 72 9e b6
       0.0012636598 6.4952976e-05 0.001234586 -4.7220674e-06
000060 27 20 5c ba 6b 6c dd 37 7b 3b da 39 e5 ef d4 b9
       -0.0008397125 2.6395739e-05 0.00041624517 -0.00040614526
000070 21 47 b4 ba c2 71 9a ba 87 3d 4e b8 94 de 47 39
       -0.0013754108 -0.001178317 -4.917153e-05 0.00019061036
000080 d4 f1 f3 b9 cb 29 37 39 fc 72 94 ba db 53 8c ba
       -0.00046528748 0.00017467809 -0.0011325772 -0.0010706143
000090 b0 81 8e ba 2b b4 ae 39 7a b6 3b ba ef bb 99 ba
       -0.001087239 0.00033322102 -0.0007160675 -0.0011728982
0000a0 8d ca 7b 3a 07 61 d0 39 06 b1 f1 b9 d8 be 4e 3a
       0.00096050726 0.00039745143 -0.00046098995 0.00078867143
0000b0 53 ec fa 39 3e 0f ac ba ea c2 5b b7 80 84 4f 3a
       0.0004785979 -0.0013127101 -1.3098799e-05 0.00079161674
0000c0 4c 6c 36 b8 a9 87 50 b9 36 34 8e b9 58 d5 fb b8
       -4.349304e-05 -0.00019886963 -0.0002712325 -0.00012008351
0000d0 a7 c5 d1 38 e4 5e 18 b8 bc fe 21 b8 22 6a 1e b8
       0.00010002712 -3.6327998e-05 -3.862263e-05 -3.776898e-05
0000e0 03 11 0f 39 31 21 ec 38 66 ac 68 b9 70 88 c5 b5
       0.0001364388 0.00011259539 -0.00022189468 -1.4717352e-06
0000f0 8e c4 50 39 51 8e b8 3a af 2b 5d ba 8e 28 df 37
       0.00019909648 0.00140805 -0.00084369903 2.6602556e-05
000100 3b be 21 ba c2 ec 16 3a 49 f4 06 b9 02 a7 02 ba
       -0.0006170009 0.00057573256 -0.00012870239 -0.00049839925
000110 ba 19 87 ba 07 48 ce b8 61 d6 21 b9 ac 62 bb 38
       -0.001030735 -9.8362616e-05 -0.00015434019 8.935234e-05
000120 59 2f e3 39 27 02 20 3a f6 06 31 ba 44 22 b8 3a
       0.0004333209 0.00061038363 -0.00067530514 0.0014048298
000130 6a 33 50 3a b2 6b 7b b8 a9 16 34 ba fa 97 9e b8
       0.00079422316 -5.9943362e-05 -0.00068698317 -7.562335e-05
000140 e8 9c 01 3a 9f 0d 49 ba f5 7b d7 b8 4e 65 92 39
       0.00049443403 -0.0007669571 -0.00010275088 0.00027922768
000150 f6 07 8d 3a 9f 4f af 38 df f5 1c b9 3b 94 96 ba
       0.0010759819 8.359481e-05 -0.00014968913 -0.0011488268
000160 1c ab 66 3a 59 9f 82 38 f0 bf 1f b9 d5 e1 66 b9
       0.0008799301 6.228564e-05 -0.00015234924 -0.00022018638
000170 2a 72 94 3a 50 3e 6e b5 d8 f2 04 ba d3 f9 04 b9
       0.0011325527 -8.8752586e-07 -0.0005071587 -0.00012681568
000180 43 8d 9b b9 ef 3d 9e 3a 61 90 05 b9 e9 22 19 ba
       -0.00029669152 0.0012072901 -0.00012737654 -0.0005841689
000190 01 f0 94 ba fd d4 00 b9 12 88 a6 38 65 c7 fe b9
       -0.0011363031 -0.00012286376 7.940842e-05 -0.00048595216
0001a0 6a 5c 12 ba 28 38 e3 39 42 bb 39 b9 1b 0f a0 3a
       -0.0005583229 0.00043338654 -0.00017712734 0.0012211533
0001b0 1d 27 21 b9 9f 6b 1b b9 90 36 1a ba 56 fc 58 b9
       -0.00015368727 -0.00014822044 -0.0005882764 -0.00020693368
0001c0 92 ba 9c ba b0 db 95 b9 f0 9f fa 38 6d 5d 6f 3a
       -0.0011957458 -0.00028583175 0.000119507196 0.0009131048
0001d0 f4 8b f6 39 83 46 4a b9 d1 25 e2 38 07 71 2e 3a
       0.0004702505 -0.00019290489 0.000107835636 0.00066544156
0001e0 c8 be 80 38 08 cc 9a 3a 9b 2e 90 b9 a3 c2 10 ba
       6.1390514e-05 0.0011810074 -0.00027500544 -0.0005522167
0001f0 32 03 20 b9 c1 fb 61 ba 99 8a 9f 3a 7e d2 7f 3a
       -0.0001525998 -0.0008620583 0.0012172043 0.0009758844
000200 23 39 a1 39 11 78 b1 39 b6 24 f4 b8 40 9f 07 ba
       0.00030750883 0.00033849527 -0.000116416646 -0.00051735714
000210 c1 e0 9f ba 3e d2 1d 37 5e 28 d2 b9 f7 41 ac ba
       -0.0012197719 9.40688e-06 -0.00040084397 -0.0013142218
000220 57 86 80 3a bf 52 b3 3a e4 4f db b9 89 72 43 b9
       0.0009805661 0.0013681276 -0.00041830458 -0.00018639317
000230 70 df 80 ba 39 47 92 ba 8c 69 b4 ba bf 5b 9b ba
       -0.0009832215 -0.0011160142 -0.0013764366 -0.0011852904
000240 19 ae 58 ba 8e c5 a2 ba 9e fd 99 ba 21 9f 02 ba
       -0.00082656887 -0.0012418495 -0.0011748557 -0.00049828185
000250 68 5d 4d ba 40 a8 9e 3a 5c a7 66 ba fd 63 ac ba
       -0.0007834048 0.0012104586 -0.0008798742 -0.0013152357
000260 4e 19 bc 39 2a 2a ab 3a 53 d5 7f ba 0e 0a 5b 3a
       0.00035877008 0.001305883 -0.0009759266 0.0008355685
000270 37 b9 55 3a e6 84 1b 38 68 3b 9d ba 2f 90 98 ba
       0.00081529043 3.707865e-05 -0.0011995854 -0.001163965
000280 9b 10 42 ba 9b da a7 39 14 4b 72 39 7e 2e 11 39
       -0.0007402987 0.00032015596 0.00023106887 0.00013845597
000290 a6 ea 99 37 3f 62 30 3a b3 00 8f b9 ba 68 8b 3a
       1.8348288e-05 0.0006728507 -0.00027275606 0.0010636069
0002a0 53 48 23 b9 81 77 09 b9 e0 7f c4 b9 c3 94 68 39
       -0.00015571834 -0.00013109857 -0.00037479308 0.00022180662
0002b0 b3 e8 a7 b8 9c 27 a6 ba 87 1a 05 ba a0 35 ae b8
       -8.006524e-05 -0.00126766 -0.00050775 -8.306955e-05
0002c0 f8 3c 5b 3a 02 f4 57 ba b3 12 08 39 f2 b3 8f ba
       0.0008363272 -0.0008237959 0.00012976937 -0.0010963662
0002d0 39 f1 93 ba 02 ac 36 3a 2a 57 3b 3a 32 d9 92 ba
       -0.00112871 0.000696838 0.00071464723 -0.0011203645
0002e0 10 b2 97 3a 88 f3 26 ba 52 6b 3a 3a d3 1b 35 ba
       0.0011573453 -0.00063686864 0.0007111329 -0.0006908748
0002f0 0e b9 01 3a 48 ab 83 3a a1 12 99 3a 6c c2 35 38
       0.0004948535 0.0010045553 0.0011678525 4.3334832e-05
000300 1b 82 03 ba 44 8f 69 ba 5b 04 37 3a 3d f2 45 3a
       -0.00050166406 -0.0008909593 0.0006981545 0.000755105
000310 7e 23 a6 38 94 c9 d7 b9 ec 67 35 3a 73 f7 f3 b9
       7.922108e-05 -0.00041158183 0.00069200876 -0.00046532936
000320 4c 33 1a 39 d1 17 09 3a 07 8b 27 3a 3a 21 2d ba
       0.00014705694 0.0005229684 0.0006391261 -0.00066043774
000330 f7 f4 4f b9 67 34 2a 3a f8 f9 e0 b9 65 97 92 ba
       -0.00019832315 0.0006492794 -0.0004291085 -0.0011184035
000340 cf b2 88 b9 10 12 2a 3a 55 c2 0d ba 59 5b 29 ba
       -0.00026073164 0.0006487677 -0.0005407681 -0.000646045
000350 16 f1 b1 ba 13 bf e7 36 23 2f 2d ba e4 1b b8 b9
       -0.0013575878 6.9065804e-06 -0.000660645 -0.00035115995
000360 53 ff 9f 39 24 3f 46 3a 84 ae 58 ba 13 b4 58 3a
       0.00030517075 0.0007562509 -0.0008265751 0.0008266579
000370 66 5d 6f 3a 74 1f 87 ba 3d 4c 28 ba e0 5e 46 ba
       0.0009131044 -0.0010309056 -0.0006420052 -0.0007567238
000380 4e 68 22 3a 77 91 6d 39 d7 10 04 3a e0 40 6c 3a
       0.0006195352 0.00022656271 0.000503791 0.00090123527
000390 04 ab 96 3a 9d af 1a 39 6d 76 28 3a aa ee ae 39
       0.0011495058 0.00014752006 0.0006426338 0.00033365685
0003a0 c4 81 84 39 6e f6 4f ba 31 f4 cb 39 3a 81 6d ba
       0.00025273685 -0.0007933144 0.00038901114 -0.0009060089
0003b0 d6 ac c1 b9 86 f8 aa 3a 2c df ba 39 2b 03 59 3a
       -0.000369406 0.0013044036 0.0003564296 0.0008278365
0003c0 6e 9b 75 3a 7d be 6b b8 01 75 88 3a a2 09 42 3a
       0.0009369169 -5.6205772e-05 0.0010410846 0.0007401948
0003d0 41 39 f0 b8 19 8b 3a 39 7c 44 5d b9 86 b0 44 37
       -0.00011454756 0.0001779016 -0.00021101715 1.172361e-05
0003e0 e7 d7 27 3a 98 ac 7f 39 f2 20 6c 3a 59 0e 33 ba
       0.00064027164 0.00024382991 0.0009007595 -0.0006830446
0003f0 16 22 f3 b7 87 d4 bd ba 45 f0 ae 39 70 d7 52 3a
       -2.898373e-05 -0.0014482894 0.0003336688 0.0008042967
