2024/07/FederatedLearning/Part02/L3/my_fl_model/peft_2/adapter_model.bin (torch, 791378 bytes, 12 tensors)

base_model.model.gpt_neox.layers.0.attention.query_key_value.lora_A.weight f4 [16, 512]
0.025305279 -0.01762078 -0.039196182 -0.026437111 0.0146042155 -0.006722912 0.010277268 -0.002266892
0.03688728 -0.031919964 0.009964446 -0.03650945 -0.022618422 -0.018395826 0.039944887 0.0464065
0.025354179 0.023402372 -0.02283607 -0.040286984 0.026028559 -0.02627707 0.02335895 0.02294523
-0.034504518 -0.0056372103 -0.014205487 0.0039542434 0.00020255445 0.037373483 -0.015841503 0.02793458
-0.034183078 -0.026449544 0.031420454 0.03616435 0.018962761 0.031351227 -0.03145138 -0.0018172307
0.018134324 -0.04045265 -0.010745768 -0.033317346 -0.021303654 0.00908798 -0.03672054 0.040262584
0.022416608 0.01802369 -0.020359665 -0.045579225 0.027997795 -0.040944137 -0.01761907 -0.023160074
-0.017553851 0.024356188 0.0038532414 -0.031055672 0.039767083 0.022572655 -0.03212472 0.0184838
0.010738703 -0.022327993 -0.032836244 0.00974875 0.02817608 -0.040162772 0.008827353 0.0013479752
0.02829879 -0.015595386 0.020311287 0.030379973 -0.022690145 -0.013987187 -0.017277356 -0.03059174
0.029362084 0.007363267 -0.0025954677 0.025737215 -0.042831104 -0.0056832978 -0.03814134 -0.0006934484
0.02097416 -0.021642175 -0.035923727 0.006874675 -0.0024318523 -0.027789172 0.033787325 -0.015391732
0.03592583 0.007936687 -0.0345635 0.013378146 -0.01330756 0.0042257556 0.01951275 0.005632708
0.0029785899 0.04019369 0.03986601 0.036376074 -0.029858673 0.0038879262 0.009924992 -0.033253442
-0.018986948 0.0025730869 0.02504014 0.03376344 -0.017914128 -0.009051692 -0.014325464 0.03427863
0.043454625 0.016866334 0.040997513 0.023869133 0.048707426 0.0037661723 0.013810636 -0.011531916
-0.028292146 0.017142056 0.014248601 -0.007368658 0.030644117 -0.029932944 -0.01798389 -0.03308947
0.035566397 0.012922062 0.016483739 0.02769684 -0.011659759 0.036045663 -0.018261854 0.0066904426
0.027834699 0.011089234 -0.021589508 -0.01908284 -0.03517088 -0.044009622 0.02375418 -0.039878726
-0.025802294 -0.030727293 0.05423248 0.019972363 0.03845255 -0.0035279007 -0.040412877 -0.03333596
0.02297025 0.026068758 0.025188038 0.016300112 -0.041738924 -0.020946776 -0.027847683 0.028670015
0.04846103 -0.04116472 0.025039308 0.01573834 -0.0005265578 -0.040110994 0.007563354 0.039846353
-0.019864097 -0.02572933 -0.005439163 -0.0066831578 0.020089678 0.018393485 0.024768358 -0.020985143
0.017062197 0.016894998 -0.016102435 0.00869642 -0.03207086 0.0011721059 0.03185527 0.0025630798
-0.016170997 0.02865656 -0.0027466714 0.01752708 -0.029814953 0.013186466 -0.01849872 0.007279886
-0.028507113 0.026099129 0.03297984 0.0038653763 -0.020400696 0.030793948 -0.0028417245 0.0059018475
0.0005978749 0.036844503 0.019763453 0.01154436 -0.0038537348 0.012416733 -0.034808196 0.02905028
-0.038630296 0.040594343 0.011635547 -0.007605874 0.021547388 -0.037844375 0.026049474 -0.036892988
-0.032916978 0.023362342 0.031145968 0.041769683 0.039069064 0.033124242 -0.001860201 -0.007038936
-0.0012588237 0.02283841 0.046642628 0.011543745 -0.015536669 0.039736945 0.018344805 0.0065939296
0.04129255 -0.00377127 0.02571227 -0.03353484 -0.0074300133 0.014574431 0.009079374 0.032895286
-0.006296516 0.020492468 0.02372865 -0.021755613 0.024960564 -0.022307545 -0.0127548985 0.025670107
00000000: 044d cf3c 7459 90bc 2d8c 20bd a492 d8bc
00000010: 8546 6f3c e04b dcbb fc61 283c 2390 14bb
00000020: 1e17 173d 82be 02bd ea41 233c ef8a 15bd
00000030: 454a b9bc d8b2 96bc 409d 233d be14 3e3d
00000040: 91b3 cf3c 55b6 bf3c b612 bbbc f703 25bd
00000050: d839 d53c 0343 d7bc 455b bf3c a3f7 bb3c
00000060: 9c54 0dbd 59b8 b8bb 22be 68bc 9992 813b
00000070: cc64 5439 f014 193d 0ac6 81bc 0fd7 e43c
00000080: 8e03 0cbd b7ac d8bc bcb2 003d 1221 143d
00000090: cb57 9b3c 256a 003d 2ad3 00bd 2530 eeba
000000a0: 6f8e 943c aeb1 25bd 050f 30bc c577 08bd
000000b0: 0085 aebc c0e5 143c 4768 16bd 61ea 243d
000000c0: 09a3 b73c 6ba6 933c 50c9 a6bc 48b1 3abd
000000d0: a25b e53c 0ab5 27bd de55 90bc 32ba bdbc
000000e0: 18cd 8fbc a186 c73c aa86 7c3b 7768 febc
000000f0: cfe2 223d 4aea b83c 3695 03bd 576b 973c
00000100: 63f1 2f3c 32e9 b6bc 4c7f 06bd 39b9 1f3c
00000110: 86d1 e63c b881 24bd 9aa0 103c 8bae b03a
00000120: ddd2 e73c ca83 7fbc db63 a63c 6cdf f83c
00000130: afe0 b9bc 842a 65bc 3e89 8dbc 879b fabc
00000140: c188 f03c 8f47 f13b b918 2abb dad6 d23c
00000150: ab6f 2fbd f53a babb 183a 1cbd 89c8 35ba
00000160: 00d2 ab3c ee4a b1bc c224 13bd f444 e13b
00000170: b65f 1fbb 1ea6 e3bc 9464 0a3d 9a2d 7cbc
00000180: f726 133d e108 023c 7592 0dbd 0330 5b3c
00000190: f407 5abc 3578 8a3b 34d9 9f3c 9492 b83b
000001a0: 7234 433b 24a2 243d 8b4a 233d 14ff 143d
000001b0: 2d9a f4bc 94cc 7e3b 6f9c 223c c334 08bd
000001c0: 848a 9bbc 3ca1 283b fb20 cd3c 884b 0a3d
000001d0: a6c0 92bc 8c4d 14bc 5ab5 6abc c067 0c3d
000001e0: 7afd 313d 442b 8a3c 02ed 273d 3389 c33c
000001f0: 7081 473d e3d1 763b 0146 623c 5df0 3cbc
00000200: eec4 e7bc 7f6d 8c3c f772 693c c974 f1bb
00000210: 5f09 fb3c ef35 f5bc f352 93bc d388 07bd
00000220: 12ae 113d 0eb7 533c e808 873c 7ce4 e23c
00000230: 9308 3fbc 9ea4 133d e299 95bc 803b db3b
00000240: 9805 e43c 9eaf 353c 7bdc b0bc 9e53 9cbc
00000250: 570f 10bd 6f43 34bd 2098 c23c e057 23bd
00000260: 555f d3bc ceb7 fbbc e022 5e3d 159d a33c
00000270: 6c80 1d3d 5a34 67bb f987 25bd 4a8b 08bd
00000280: 1b2c bc3c 268e d53c 2557 ce3c d087 853c
00000290: 6ff6 2abd 9398 abbc d320 e4bc 61dd ea3c
000002a0: 137f 463d 569c 28bd 3c1f cd3c b1ed 803c
000002b0: b208 0aba 6d4b 24bd 03d6 f73b ee35 233d
000002c0: 08ba a2bc 51c6 d2bc 023b b2bb 64fe dabb
000002d0: 1c93 a43c efad 963c 03e7 ca3c 09e9 abbc
000002e0: 05c6 8b3c 6167 8a3c 41e9 83bc 6e7b 0e3c
000002f0: bc5c 03bd 59a1 993a ac7a 023d 58f9 273b
00000300: 0a79 84bc 2ac1 ea3c 8001 34bb f394 8f3c
00000310: 7d3e f4bc 0c0c 583c a18a 97bc 1c8c ee3b
00000320: c087 e9bc d7cd d53c de15 073d 4152 7d3b
00000330: 5c1f a7bc 9743 fc3c 3a3c 3abb 4964 c13b
00000340: b5ba 1c3a 43ea 163d f7e6 a13c 8e24 3d3c
00000350: f18e 7cbb 8e6f 4b3c 0a93 0ebd dafa ed3c
00000360: cd3a 1ebd 4146 263d 05a3 3e3c b23a f9bb
00000370: 2684 b03c b402 1bbd b565 d53c 1a1d 17bd
00000380: f4d3 06bd 6262 bf3c d425 ff3c b016 2b3d
00000390: e206 203d 49ad 073d fdd1 f3ba e0a6 e6bb
000003a0: 1dff a4ba 9e17 bb3c 570c 3f3d fa21 3d3c
000003b0: 838d 7ebc 35c3 223d d847 963c e411 d83b
000003c0: 6022 293d 6927 77bb 8aa2 d23c d45b 09bd
000003d0: 7877 f3bb 98c9 6e3c a8c1 143c 35bd 063d
000003e0: 0153 cebb d2df a73c 9662 c23c d438 b2bc
000003f0: 197a cc3c 50be b6bc ecf9 50bc 1e4a d23c

base_model.model.gpt_neox.layers.0.attention.query_key_value.lora_B.weight f4 [1536, 16]
0.005559132 -0.003926393 -0.0013658908 0.004235505 -0.002911188 -0.0019620326 -0.0023342466 0.0057325657
-0.00030934892 0.004951487 -0.004749541 -0.0076552858 0.0011178878 0.004180647 -0.0014210088 0.0028166904
0.0032015962 0.0028510795 -0.0034829674 -0.0028879822 0.00265417 0.008060481 -0.004019259 0.0022703926
-0.0015377655 0.0011050953 -0.0015954459 0.006585818 0.003785921 0.0029206078 -0.008524563 -0.00049484475
0.0050667943 0.0011780839 0.0030271478 0.0004044871 0.0042370274 0.0022927222 0.00083852117 -0.005466944
0.001422323 -0.0075226706 0.00095617044 -0.0050802478 0.00092705723 0.0013505833 -0.0005406447 0.004876214
-0.00057868054 0.0024058637 0.0035262546 -0.0004514447 0.0024994686 -0.002689572 0.0062580467 -0.0002132102
-0.0025747065 -0.00066674536 -0.00016912178 -0.0019248368 -0.0059964317 -0.0027304918 -0.0043021897 0.0028198136
-0.0002480384 0.0056858486 -0.000102604405 0.003176466 0.0003521196 -0.005235443 -0.00032581686 -0.0014516374
-0.0040934375 -0.0041840533 -0.0003906828 0.0001438758 0.0041870424 0.0013754043 4.053602e-05 -0.0064351787
-0.0018859977 -0.0021835247 -0.0014775574 0.00064595736 -0.0019829639 0.0069255433 -0.003179733 0.003660753
-0.002396166 0.008527787 0.0020443555 -0.0030529895 -0.0023781469 0.0019051277 -0.0029756147 -0.0019030249
-0.003162026 -0.005651676 -0.0032780748 -0.0012563787 0.0025870749 -0.00076366076 -0.0028800215 -0.0004794511
0.006056293 0.0050013806 -0.0010376595 0.0054400144 0.0033434425 -0.0049816403 0.0029080077 0.0003004811
0.0010283035 0.0043053026 0.0013663182 -0.0050177504 0.008001116 -0.008749197 -0.0003102705 -0.0028155076
0.005354284 0.0060936953 0.0055947984 -0.00069560076 0.00018248061 0.00035555812 0.0017478276 -0.004242553
0.0067052734 0.0008754589 -0.0033186672 -0.0052441703 -0.006046369 -0.0018430331 0.0059809955 -0.012737486
0.00051517284 -0.0025269298 -0.008059517 -0.0027967962 0.0028141674 -0.0007436356 -5.8850284e-05 -0.0028210464
-0.0016326978 0.002960015 0.004128847 0.0043268073 -0.0025065807 -0.0022820178 -0.0019835487 0.0024341603
0.004029534 -0.0027659703 -0.0018156425 0.0009071195 -0.0019369243 0.004386478 -0.0007451558 -0.0032764955
0.0010526552 -0.0017202258 -4.527457e-05 -0.0008667291 -0.0052992376 0.0013055793 -0.0022580014 0.0010399703
-0.0026279765 0.0041128793 -0.0043892437 0.0030219848 0.0034757548 0.0031050285 0.004013207 -0.0024617012
5.617786e-05 -0.00027979852 -0.00040471874 -0.0023796684 0.00036305236 -0.004555177 0.0042898823 0.006167802
0.0024663715 0.0005100528 0.003171976 -0.0010100794 0.0043523964 -0.0015741653 -0.0016315868 -0.00060569536
0.0070040147 0.0014669327 0.0066830926 0.0022519126 -0.002403136 -0.0022765447 -0.0018309687 0.00061265985
-0.0032995373 -0.0012528679 0.0013320119 0.0007131145 0.0016862566 -0.0015020203 0.005472306 0.00089710776
0.0015960268 -0.0030263232 -0.0010985264 0.0023618303 0.001080877 0.005224851 0.0033939525 -0.0019814887
6.557433e-05 -0.005485265 0.0025517282 -0.0022643665 -0.0025987849 0.0007170353 -0.0021591838 -0.003988173
-0.0012607261 -0.0013665484 0.001014244 0.000633648 0.00061342196 -0.00038278103 -0.007459644 -0.0017839321
-0.0014883417 -0.005808819 0.0049914923 0.0061020306 -0.007448876 -0.00713739 0.00236269 -0.0015200091
-0.00030325542 -0.0022884575 -0.0018724864 -0.0022186236 -0.0012891386 0.0006489979 -0.0023068762 0.0020934038
0.0018615477 -0.001965859 -0.00083738513 -0.0054740636 0.0007261208 0.0021629862 -5.8481368e-05 0.0053422158
00000000: 6129 b63b f9a8 80bb b107 b3ba fec9 8a3b
00000010: a1c9 3ebb 7295 00bb 29fa 18bb 3fd8 bb3b
00000020: 1c30 a2b9 1540 a23b 0aa2 9bbb 31d9 fabb
00000030: 1786 923a cffd 883b 2541 baba 3998 383b
00000040: dfd1 513b 2dd9 3a3b 7f42 64bb 4d44 3dbb
00000050: 95f1 2d3b 1c10 043c fdb3 83bb deca 143b
00000060: d98e c9ba d8d8 903a 481e d1ba d8cd d73b
00000070: 371d 783b ab67 3f3b 9caa 0bbc 78b8 01ba
00000080: 5a07 a63b f069 9a3a 1d63 463b 5711 d439
00000090: c3d6 8a3b 7f41 163b 34d0 5b3a 0d24 b3bb
000000a0: 3e6d ba3a bc80 f6bb 83a7 7a3a 3578 a6bb
000000b0: c205 733a 0e06 b13a 0dba 0dba a6c8 9f3b
000000c0: 98b2 17ba b2ab 1d3b bc18 673b e2af ecb9
000000d0: 20ce 233b 8843 30bb 4d10 cd3b 2d91 5fb9
000000e0: 68bc 28bb 86c8 2eba 4856 31b9 ce4a fcba
000000f0: b77d c4bb 0df2 32bb 62f9 8cbb 9fcc 383b
00000100: 270b 82b9 5b50 ba3b 522d d7b8 422c 503b
00000110: b19c b839 148e abbb 66d2 aab9 de44 beba
00000120: 3e22 86bb 621a 89bb 8fd4 ccb9 5edd 1639
00000130: 7533 893b e946 b43a 3805 2a38 31de d2bb
00000140: 9533 f7ba 7719 0fbb 99aa c1ba 7755 293a
00000150: 9df4 01bb abef e23b 1163 50bb 3ee9 6f3b
00000160: ff08 1dbb 22b8 0b3c 98fa 053b aa14 48bb
00000170: afda 1bbb 7ab5 f93a 8802 43bb eb6e f9ba
00000180: fe39 4fbb b231 b9bb f8d4 56bb 13ad a4ba
00000190: ea8b 293b 6830 48ba bebe 3cbb d65e fbb9
000001a0: de73 c63b 9fe2 a33b 1302 88ba 2642 b23b
000001b0: a81d 5b3b 073d a3bb 4694 3e3b e489 9d39
000001c0: 24c8 863a 7f13 8d3b 0816 b33a f16b a4bb
000001d0: 1d17 033c cb58 0fbc cdab a2b9 6184 38bb
000001e0: fd72 af3b 9fad c73b 9254 b73b fa58 36ba
000001f0: 4458 3f39 346a ba39 5d17 e53a 1d05 8bbb
00000200: e9b7 db3b 0d7f 653a ff7d 59bb 4ad7 abbb
00000210: 9f20 c6bb ee91 f1ba 3afc c33b e3b0 50bc
00000220: aa0c 073a d99a 25bb 100c 04bc 744a 37bb
00000230: e56d 383b 8af0 42ba 03d6 76b8 4ee1 38bb
00000240: 3f00 d6ba d0fc 413b 474b 873b e4c7 8d3b
00000250: 7245 24bb e88d 15bb 6dfe 01bb 6f86 1f3b
00000260: 2e0a 843b 4845 35bb dafa edba c2cb 6d3a
00000270: 65e0 fdba 72bc 8f3b 8f56 43ba 79ba 56bb
00000280: 3ff9 893a 3379 e1ba 33e5 3db8 3535 63ba
00000290: 3aa5 adbb f91f ab3a fafa 13bb 9d4f 883a
000002a0: 213a 2cbb 55c5 863b a5d3 8fbb 7e0c 463b
000002b0: 7dc9 633b bc7d 4b3b 3881 833b 7e54 21bb
000002c0: 85a0 6b38 ecb1 92b9 6e30 d4b9 36f4 1bbb
000002d0: 1058 be39 9843 95bb 2492 8c3b 461b ca3b
000002e0: d9a2 213b 10b5 053a ede0 4f3b a464 84ba
000002f0: 8c9e 8e3b 3954 ceba f8da d5ba 87c7 1eba
00000300: ef81 e53b 1846 c03a d8fd da3b d394 133b
00000310: ef7d 1dbb 1532 15bb 1dfd efba e89a 203a
00000320: 0d3d 58bb 4537 a4ba e796 ae3a 4ef0 3a3a
00000330: 6205 dd3a 70df c4ba 0851 b33b e22b 6b3a
00000340: c631 d13a 4755 46bb 6efc 8fba f0c8 1a3b
00000350: 37ac 8d3a 3a35 ab3b 136d 5e3b dddb 01bb
00000360: f384 8938 bdbd b3bb e53a 273b c465 14bb
00000370: 6050 2abb 6df7 3b3a 1881 0dbb 38af 82bb
00000380: f33e a5ba c11d b3ba 62f0 843a 661b 263a
00000390: 0dce 203a 00b0 c8b9 0870 f4bb d4d2 e9ba
000003a0: 7614 c3ba e857 bebb ac8f a33b 8bf3 c73b
000003b0: b315 f4bb c4e0 e9bb 5cd7 1a3b 0b3b c7ba
000003c0: 41fe 9eb9 f2f9 15bb 386e f5ba 5466 11bb
000003d0: 50f8 a8ba 8321 2a3a f62e 17bb 7d31 093b
000003e0: 2dff f33a a4d5 00bb f783 5bba c65f b3bb
000003f0: 2459 3e3a e3c0 0d3b e449 75b8 c10d af3b

base_model.model.gpt_neox.layers.1.attention.query_key_value.lora_A.weight f4 [16, 512]
0.0012777664 -0.024427274 0.035479855 -0.03116908 -0.03409273 -0.016834827 -0.018324995 -0.0020990872
0.030636324 0.014903375 -0.031444985 -0.037331473 0.0023226598 -0.013177138 0.03598852 0.007806252
-0.020859217 -0.005430482 -0.04514262 -0.0024858462 -0.04342345 0.040915713 0.028840091 0.016001461
0.014211891 0.00038878585 0.01315499 -0.007842258 0.032905504 0.038178083 0.013680974 0.014196154
-0.00750623 -0.005965054 0.020583292 0.011706732 -0.024419716 0.036255624 -0.020287395 -0.038899135
-0.009906967 0.023584776 -0.03724286 -0.021425297 0.017207006 -0.044166744 -0.032790568 -0.004086741
-0.012900389 0.021717861 0.010978538 0.027170384 -0.020011088 -0.0030880368 0.04158762 -0.02282358
-0.0149326045 -0.013007745 -0.020890053 0.046075583 0.03356917 0.039606266 -0.019396298 -0.02256258
-0.018308815 -0.013727128 -0.008843355 0.03194479 0.037376706 -0.040434387 -0.016289804 -0.044546075
0.023709392 -0.02735208 -0.009236213 0.011022806 0.040232606 0.040253337 -0.03567142 -0.008641737
0.018438512 0.0013334202 -0.007847581 -0.03089709 -0.026486408 -0.01576707 0.036939774 -0.032294277
0.011265141 0.030445471 -0.03153338 -0.018424915 -0.014727214 0.030020315 -0.043011446 -0.01537963
0.015983013 0.039136037 0.017510762 0.016837198 -0.018019421 0.010469996 0.00011671079 0.009989591
0.026004484 -7.758464e-05 -0.034342997 -0.029943934 0.021760056 0.0102396915 0.011213878 -0.036938287
0.021504384 0.044650797 0.003877224 -0.037079662 0.018112589 -0.038603924 0.008048844 -0.042308692
-0.046099797 -0.013335707 -0.0018869512 -0.03651075 -0.0064110593 0.024236804 0.010267598 0.03316562
0.005674114 0.026402695 -0.011106314 -0.037903205 0.005211703 0.030818338 -0.034338053 -0.030733004
0.0014784938 -0.049307924 0.030829407 0.00912447 0.017107893 -0.0330671 0.038401823 0.007395307
-0.0056108055 0.0077689807 -0.02523228 0.030978508 0.028445622 -0.026759973 0.018764768 0.03854326
0.031163257 0.007416913 0.017009644 0.040083457 -0.011665416 -0.01135549 0.0056866365 0.018035043
-0.024414513 -0.03724257 -0.008893644 0.027440567 0.017643873 0.008508142 -0.0019417817 0.0076168794
0.02295553 0.038546573 -0.021553291 0.024496334 -0.016771581 0.014136721 0.030215511 -0.014801586
0.03504764 -0.0059385174 0.037707403 0.008670425 0.008026261 -0.02975045 -0.0065113986 -0.036001194
0.04373643 -0.032381672 0.030237235 -0.0029964643 -0.00409117 -0.0054040495 -0.02936985 -0.0047364295
-0.029446729 -0.021379894 0.03072293 -0.0065209824 0.039900485 0.002382789 -0.027894035 -0.030876802
0.028562095 0.02259505 -0.014107725 -0.01243865 -0.010312618 -0.035488114 -0.011347481 0.014203804
-0.027314583 0.030599255 0.040748946 0.011591876 -0.0043015056 0.036379043 0.006988848 -0.028591225
0.043756366 0.008455554 0.034027785 -0.04001528 0.011595022 0.011211301 -0.015139786 -0.03373777
-0.008067736 -0.005791505 -0.0022365537 -0.04516676 -0.033861205 0.004028187 0.013601744 -0.04116759
0.024366872 -0.019232731 0.037533 0.009346972 -0.0017382841 -0.03501669 0.0105686765 -0.044806514
0.027777895 -0.002654417 0.025576787 -0.0011469545 -0.03479176 -0.03579563 0.027344631 -0.037613332
-0.01779917 0.03953873 -0.036659252 -0.029355465 0.023549939 0.026703643 -0.0019190321 0.013073164
00000000: ba7a a73a b51b c8bc 5353 113d 4c56 ffbc
00000010: d2a4 0bbd 31e9 89bc 4d1e 96bc d790 09bb
00000020: 07f9 fa3c 492d 743c 75cc 00bd e3e8 18bd
00000030: c437 183b ece4 57bc b368 133d 97cb ff3b
00000040: f3e0 aabc 2ff2 b1bb 78e7 38bd 94e9 22bb
00000050: cadc 31bd 3c97 273d 0e42 ec3c 7f15 833c
00000060: fed8 683c f4d5 cb39 0788 573c d07c 00bc
00000070: ecc7 063d 9f60 1c3d 2a26 603c fc96 683c
00000080: d2f6 f5bb 8076 c3bb 4b9e a83c 98cd 3f3c
00000090: db0b c8bc c780 143d c031 a6bc b354 1fbd
000000a0: d550 22bc dc34 c13c f88b 18bd 1b84 afbc
000000b0: b5f5 8c3c 30e8 34bd 674f 06bd 11ea 85bb
000000c0: 275c 53bc a8e9 b13c 53df 333c 6d94 de3c
000000d0: 4bee a3bc a960 4abb c857 2a3d 84f8 babc
000000e0: e2a7 74bc 701e 55bc 9e21 abbc c0b9 3c3d
000000f0: d37f 093d 2e3a 223d fce4 9ebc 29d5 b8bc
00000100: 5efc 95bc bfe7 60bc b8e3 10bc 8ad8 023d
00000110: 5118 193d 879e 25bd 3272 85bc f275 36bd
00000120: 333a c23c 7811 e0bc 7c53 17bc 0099 343c
00000130: f2ca 243d afe0 243d 321c 12bd 1296 0dbc
00000140: 5d0c 973c 28c6 ae3a 2493 00bc e51b fdbc
00000150: 06fa d8bc f129 81bc 294e 173d 0147 04bd
00000160: 6d91 383c c868 f93c 2529 01bd d9ef 96bc
00000170: 6a4a 71bc 2aed f53c c52c 30bd d8fa 7bbc
00000180: cfee 823c 1c4d 203d bb72 8f3c 2aee 893c
00000190: 779d 93bc 598a 2b3c a1c2 f438 62ab 233c
000001a0: 5b07 d53c f0b4 a2b8 3eab 0cbd fb4c f5bc
000001b0: 2542 b23c 61c4 273c 6aba 373c 9a4c 17bd
000001c0: f629 b03c c1e3 363d 0619 7e3b d8e0 17bd
000001d0: da60 943c 261f 1ebd 4cdf 033c e14b 2dbd
000001e0: 24d3 3cbd 027e 5abc 9353 f7ba 4c8c 15bd
000001f0: dd13 d2bb 438c c63c 6d39 283c acd8 073d
00000200: ebed b93b 774a d83c 42f7 35bc 6440 1bbd
00000210: efc6 aa3b bd76 fc3c 0fa6 0cbd c8c3 fbbc
00000220: 05ca c13a 1bf7 49bd f48d fc3c cd7e 153c
00000230: da25 8c3c 5e71 07bd 3b4b 1d3d 5554 f23b
00000240: d9da b7bb ef92 fe3b edb3 cebc a4c6 fd3c
00000250: cb06 e93c bb37 dbbc 92b8 993c 8adf 1d3d
00000260: 164a ff3c 9309 f33b cf57 8b3c 8d2e 243d
00000270: 4d20 3fbc 610c 3abc f756 ba3b 3abe 933c
00000280: f200 c8bc aa8b 18bd a6b6 11bc 0acb e03c
00000290: e289 903c bc65 0b3c 6283 feba 0497 f93b
000002a0: 3c0d bc3c 03e3 1d3d 8790 b0bc 89ac c83c
000002b0: 8e64 89bc b59d 673c 8586 f73c 5a82 72bc
000002c0: 1d8e 0f3d e597 c2bb 1473 1a3d 660e 0e3c
000002d0: 9480 033c 37b7 f3bc 925d d5bb fd75 13bd
000002e0: f924 333d a5a2 04bd 14b4 f73c 5460 44bb
000002f0: 390f 86bb 7414 b1bb 0a99 f0bc 0d34 9bbb
00000300: 443a f1bc e324 afbc a7ae fb3c f7ad d5bb
00000310: b16e 233d 9128 1c3b 0882 e4bc 59f1 fcbc
00000320: 0efb e93c 4119 b93c 1624 67bc 7bcb 4bbc
00000330: 41f6 28bc fc5b 11bd c9ea 39bc 12b7 683c
00000340: d5c2 dfbc 4aab fa3c 5ee8 263d daeb 3d3c
00000350: a5f3 8cbb 3102 153d b502 e53b 2538 eabc
00000360: e039 333d 2a89 0a3c b860 0b3d 10e7 23bd
00000370: 0cf9 3d3c 9baf 373c dd0c 78bc 9e30 0abd
00000380: 8a2e 04bc aac6 bdbb 2593 12bb c800 39bd
00000390: 0cb2 0abd e2fe 833b d9d9 5e3c 599f 28bd
000003a0: 099d c73c f68d 9dbc 34bc 193d 0b24 193c
000003b0: 23d7 e3ba a96d 0fbd 3e28 2d3c 0987 37bd
000003c0: 788e e33c baf5 2dbb 6986 d13c 6855 96ba
000003d0: ce81 0ebd 709e 12bd d901 e03c 7010 1abd
000003e0: 91cf 91bc 5df3 213d 0328 16bd df7a f0bc
000003f0: cdeb c03c 99c1 da3c 0888 fbba d330 563c

base_model.model.gpt_neox.layers.1.attention.query_key_value.lora_B.weight f4 [1536, 16]
-0.00037386082 -0.0019359497 -0.003283489 0.005902303 0.0043689953 0.001823079 -0.0057841875 -0.0007868564
-0.00024611424 -0.003300162 0.0023236796 -0.006294601 0.00051873573 -0.004265309 0.0034755613 0.0034576107
-0.0039577014 0.0014111472 0.0034250396 0.006181721 0.0045054117 -0.0013922945 0.0025902232 -0.005053382
-0.0043091653 -0.003445553 0.0049379775 0.0014794895 -0.0045267865 0.003369819 0.0040378994 0.0013605193
0.0045284545 -0.005195675 -0.0014088217 0.0006297549 -0.0009236784 -0.0031512654 0.0014430715 -0.00047187982
0.0045651775 -0.00055061496 0.0015493279 -0.0037894954 0.00054847344 -0.0034183622 -0.0064130416 -0.005979016
0.005125369 -0.0027571882 -0.00077315234 -0.0018516462 -0.001981743 -0.0034385906 0.0014650825 0.003823067
-0.0029447097 0.0053607915 -0.003431256 0.0037629756 0.0019462879 0.0058859163 -0.00086029724 -0.0053862105
0.0003407875 -0.00688935 -0.00528722 0.0063359905 0.0011890214 0.00352768 0.00089019194 0.0020126803
8.620997e-05 -0.0033350457 -0.0058618756 0.0007485094 0.00052531686 -0.000997684 0.0050059413 0.0007437486
0.0016295967 0.0036002996 -0.0012902765 0.0012254111 -0.0096867755 -0.0051684347 9.8264536e-05 0.00094016886
-0.0030731019 -0.004421479 0.0025219696 0.0032519628 -0.0008503206 0.004955113 0.0013383066 0.0048750727
0.003978076 0.003941631 0.0024331843 -0.0032741386 0.006728667 -0.001783827 -0.00026737232 0.0047722165
-0.0019086557 -0.0027172095 0.0037794048 0.0031136002 -3.136718e-05 0.00025571501 0.0014085806 -0.006904574
0.005499817 0.00458795 -0.0028172014 0.0037969754 -0.00018789884 -0.0002550455 0.0017558662 3.0674695e-05
0.0019599693 -0.00089695293 -0.001637684 0.0044194954 0.00030593315 -0.001168716 -0.006907077 -0.0043234425
0.005161861 -0.0018434987 0.0069610598 -0.0016722609 0.00060744915 -0.0021904588 0.0015972048 0.00036805304
-2.5666688e-07 -0.00041561297 0.0026361768 -0.0032802515 6.800576e-05 -0.0007485426 -0.005863361 -0.00095951336
0.005591456 0.003055554 -0.001151186 -0.0043146396 -0.0008524621 -0.0013125681 0.0036779635 0.0013156786
0.00020771018 0.0055151177 -0.00024520478 -0.0044319713 -0.004942019 0.0012628374 -0.0015115864 0.00026075201
-0.00023701292 -0.0008799795 0.0022299206 -0.0015666443 0.0044054254 -0.00033479318 -0.003245559 0.00088698405
0.0007533041 -0.0007715211 0.0052416935 0.0017894531 -0.005263052 0.0019270976 0.0016194159 -0.0024032872
0.0003807458 0.0023075333 -0.0029152143 -0.002548394 7.3010015e-05 -0.0051351767 -0.007100778 0.004589061
0.003349028 -0.0018285725 -0.0057956493 -0.0032575184 -0.0026452064 -0.0009612866 -0.0019489776 -0.003571668
-0.00083574734 -1.7307577e-05 4.14916e-05 0.00017081026 0.0038266866 -6.2567444e-05 -0.0026767086 -0.0022782092
0.0037374294 0.0037558381 -0.0017265491 0.00025082976 0.0037152483 -0.00017553467 0.0060044974 -0.0009881464
0.002317121 0.0027020094 -0.0018665759 0.004882247 -0.0065851873 0.0037384864 -0.0025266297 -0.0038240422
0.00043950655 0.0062035606 -0.0016795055 0.00085201126 -0.0043279245 0.0012217498 -0.0037311828 0.0014386368
-0.0010593549 -0.0037696073 0.0032098552 -0.009465582 -0.0017105395 0.0027850422 -0.00078133587 -0.0003333498
-0.004840488 -0.0077638826 -0.0039858036 -0.0044958326 -0.00065345626 -0.0057435036 -0.00015139152 -0.0019926997
-0.00060785294 0.00690935 0.0071276524 0.0068108737 -0.005858649 0.0034069961 0.0012429231 -0.0032143882
0.0040611587 0.0021069727 0.0018234738 -0.0013703908 0.0002367194 -0.0040969183 -0.0005742078 -0.0032239435
00000000: c002 c4b9 b1bf fdba ce2f 57bb 1b68 c13b
00000010: ca29 8f3b 61f4 ee3a 4889 bdbb 0a45 4eba
00000020: e508 81b9 8847 58bb e048 183b f142 cebb
00000030: c4fb 073a 01c4 8bbb 3ec6 633b 1599 623b
00000040: 9baf 81bb 3ef6 b83a a176 603b 0990 ca3b
00000050: 22a2 933b a77d b6ba bcc0 293b d796 a5bb
00000060: e633 8dbb c9ce 61bb c2ce a13b 6eeb c13a
00000070: 7055 94bb 2ed8 5c3b 5b50 843b 7453 b23a
00000080: 6e63 943b 7b40 aabb 36a8 b8ba 2316 253a
00000090: 0223 72ba 7685 4ebb 7225 bd3a a366 f7b9
000000a0: 7c97 953b 2557 10ba d112 cb3a 2f59 78bb
000000b0: 6ec7 0f3a 9a06 60bb 7e24 d2bb 9feb c3bb
000000c0: b6f2 a73b f1b1 34bb 60ad 4aba f0b2 f2ba
000000d0: 21e0 01bb fa59 61bb 0308 c03a 6c8c 7a3b
000000e0: 08fc 40bb 94a9 af3b ecde 60bb 419c 763b
000000f0: 961a ff3a a5de c03b 9285 61ba cf7e b0bb
00000100: b9ab b239 0ec0 e1bb 6a40 adbb 249e cf3b
00000110: f0d8 9b3a a630 673b c55b 693a 2ce7 033b
00000120: a0cb b438 c890 5abb fa14 c0bb 9e37 443a
00000130: 6bb5 093a b8c4 82ba e108 a43b 20f8 423a
00000140: 3198 d53a 01f3 6b3b 7f1e a9ba f99d a03a
00000150: 48b5 1ebc f95b a9bb 5f13 ce38 aa75 763a
00000160: 1866 49bb 0ee2 90bb a147 253b e21e 553b
00000170: 0de8 5eba 805e a23b 1e6a af3a 13bf 9f3b
00000180: 855a 823b cc28 813b 0f76 1f3b ee92 56bb
00000190: 267c dc3b 4dcf e9ba 1b2e 8cb9 4160 9c3b
000001a0: dc2b faba 3613 32bb e4af 773b 8b0d 4c3b
000001b0: 4190 03b8 7d11 8639 1fa0 b83a c43f e2bb
000001c0: cf37 b43b 8456 963b cca0 38bb add6 783b
000001d0: b606 45b9 a1b7 85b9 1825 e63a b4a8 0038
000001e0: d472 003b 7e21 6bba 8ea7 d6ba 6ad1 903b
000001f0: a765 a039 9a2f 99ba c354 e2bb aaab 8dbb
00000200: d424 a93b 8da1 f1ba 9a19 e43b c42f dbba
00000210: 393d 1f3a cd8d 0fbb 4d59 d13a 3ef7 c039
00000220: 07cc 89b4 a1e6 d9b9 b5c3 2c3b 7df9 56bb
00000230: 509e 8e38 d839 44ba 7021 c0bb da87 7bba
00000240: 8838 b73b b13f 483b 64e3 96ba d261 8dbb
00000250: c377 5fba 7a0a acba fd09 713b d972 ac3a
00000260: c7cc 5939 29b8 b43b d48e 80b9 123a 91bb
00000270: a9f0 a1bb cb85 a53a 6c20 c6ba 8bb5 8839
00000280: ac86 78b9 6dae 66ba dc23 123b dc57 cdba
00000290: 635b 903b 2e87 afb9 72b3 54bb 7e84 683a
000002a0: 6279 453a e83f 4aba 83c2 ab3b 158c ea3a
000002b0: ae75 acbb aa96 fc3a 9542 d43a 7880 1dbb
000002c0: d69e c739 fc39 173b 2e0d 3fbb f502 27bb
000002d0: f41c 9938 fc44 a8bb a5ad e8bb d55f 963b
000002e0: 5e7b 5b3b b6ac efba 6ee9 bdbb 177c 55bb
000002f0: 335b 2dbb dafe 7bba d674 ffba a512 6abb
00000300: 0e16 5bba bd2f 91b7 4407 2e38 881b 3339
00000310: 26c9 7a3b a436 83b8 b86b 2fbb 024e 15bb
00000320: a9ef 743b 8224 763b 604d e2ba cd81 8339
00000330: 867b 733b bb0f 38b9 60c1 c43b b184 81ba
00000340: d7da 173b 3214 313b e5a7 f4ba 42fb 9f3b
00000350: 8ec8 d7bb 6501 753b d095 25bb c89c 7abb
00000360: 926d e639 3d47 cb3b da22 dcba 8259 5f3a
00000370: 43d1 8dbb 1f23 a03a dc86 74bb a490 bc3a
00000380: 0dda 8aba 840b 77bb 6f5c 523b 8715 1bbc
00000390: 2e34 e0ba 4185 363b 90d2 4cba 74c5 aeb9
000003a0: f59c 9ebb 2b68 febb 589b 82bb c751 93bb
000003b0: b54c 2bba 0034 bcbb dabe 1eb9 f497 02bb
000003c0: 5258 1fba d467 e23b 158f e93b c02d df3b
000003d0: e9f9 bfbb e947 5f3b 94e9 a23a 7ca8 52bb
000003e0: 7813 853b 2315 0a3b a101 ef3a af9e b3ba
000003f0: e137 7839 713f 86bb 6f86 16ba cc48 53bb

base_model.model.gpt_neox.layers.2.attention.query_key_value.lora_A.weight f4 [16, 512]
0.0368999 -0.03857848 -0.0054523954 0.020867491 -0.037334196 -0.029009705 -0.024791818 -0.0003490347
0.037424564 -0.0015990246 0.007207275 0.010812367 0.037025884 -0.011485148 -0.023838656 0.0302471
0.02180678 -0.04507044 -0.039517794 0.026566766 -0.011827293 0.020616516 0.0012415526 0.039415725
0.040021718 0.03396761 -0.0002562315 0.026172273 -0.0054365303 0.0071988823 0.029077591 0.001183346
-0.010312446 -0.0045484933 -0.0010606783 0.040129986 0.014333455 -0.04044722 0.002154422 0.021713138
0.04228364 -0.01388338 0.016255243 -0.026107647 -0.0006307281 0.03367724 0.0121541405 -0.022974193
0.001003762 -0.028130312 -0.030182468 0.027216852 0.03888746 -0.03843169 0.023578769 0.023903903
0.044430014 0.02524262 -0.03148393 -0.014550621 0.015671877 0.010646321 0.03142173 0.007980379
-0.038016107 -0.04620789 -0.045369912 -0.019812044 -0.0034312217 0.043947857 -0.015400512 0.040378217
-0.00063023064 0.0005542812 -0.009800235 0.0330612 -0.018245894 0.010467032 -0.037479505 0.024945898
-0.021322379 -0.00095126237 -0.0077408976 0.017142966 -0.03678025 0.040540334 -0.020101959 0.024457647
0.030198624 0.005849251 -0.027225891 0.0038724218 -0.017921692 -0.006601666 -0.022616982 -0.030544387
0.037907243 0.005396503 0.033152305 0.00045926782 0.0385095 0.027524188 0.040012788 0.037358623
-0.02933048 0.019860303 0.0030200607 -0.03798867 0.04053444 -0.052741095 0.022232592 0.026841301
-0.012360499 0.01707864 -0.038478125 0.034015544 -0.023005554 -0.010072332 -0.030506324 0.032309186
-0.03762189 -0.031379946 0.025747778 0.037588414 0.030895248 0.0046383594 0.04137745 -0.03734987
0.037447743 0.017711133 -0.006825906 -0.03454978 -0.006377572 -0.010146353 0.018969312 -0.0065389588
0.015807167 -0.009515583 -0.013686236 -0.023530314 0.040222734 -0.0068479376 -0.029571 0.0442047
-0.0064650388 0.024704019 -0.012321826 0.01581295 -0.012623999 0.030403104 -0.0322164 -0.028961515
0.0084628295 -0.0151940845 0.029669752 0.019109998 -0.015796708 0.010901494 -0.011328094 0.03992881
0.03965395 0.024935449 0.04651914 0.04607009 0.022332177 -0.025903538 -0.014694088 0.027587278
0.014410647 0.00070534507 -0.026055926 0.030602971 0.028274247 0.0288987 0.02728797 0.037385598
-0.033847414 -0.019744026 0.0373746 -0.0399539 -0.02192648 0.0021272628 -0.018174857 0.022975756
-0.020429198 -0.014594372 -0.018584155 -0.0033037341 0.0090652695 -0.025814412 -0.038677078 -0.0097645065
-0.002674333 -0.017086549 0.015645025 -0.016626107 -0.023144122 0.024150299 0.004258069 0.011435695
0.01745136 0.01496137 0.036334254 0.01841047 -0.018246338 -0.02227328 -0.018235663 0.010699704
-0.011018927 0.012565116 -0.019145234 -0.041009143 0.033506818 0.0088456925 -0.030107519 -0.009050733
-0.025020787 0.026323086 0.01880805 -0.03309338 -0.007496592 -0.027648423 0.023668164 0.03887731
-0.008774698 -0.013402105 0.020635763 0.0070944508 0.032444768 -0.01648292 0.012150262 0.033956185
-0.0032804206 -0.01750984 -0.020952037 0.031217147 -0.006427761 0.017962813 0.03104383 0.024135403
-0.0037005963 -0.037206862 -0.0020032458 0.016785227 0.00696474 0.0018989933 -0.041667707 0.030390931
0.004935622 0.028742785 0.03582201 0.0264298 -0.022679428 0.0359408 0.018619806 -0.0070668636
00000000: 5924 173d 7804 1ebd 02aa b2bb 4df2 aa3c
00000010: beeb 18bd c3a5 edbc 3618 cbbc a5fe b6b9
00000020: 804a 193d 5d96 d1ba 012b ec3b 5b26 313c
00000030: 74a8 173d 342c 3cbc 4949 c3bc c4c8 f73c
00000040: 22a4 b23c c89b 38bd 69dd 21bd 8ca2 d93c
00000050: 43c7 41bc f8e3 a83c 98bb a23a 6272 213d
00000060: d0ed 233d 9f21 0b3d cf56 86b9 3c67 d63c
00000070: ec24 b2bb 9ae4 eb3b 2134 ee3c 811a 9b3a
00000080: 89f5 28bc 870b 95bb 7506 8bba 575f 243d
00000090: ded6 6a3c fcab 25bd 3431 0d3b c0df b13c
000000a0: 9c31 2d3d 1e77 63bc b729 853c b4df d5bc
000000b0: 7257 25ba 25f1 093d 2922 473c 6034 bcbc
000000c0: aa90 833a 8a71 e6bc 3941 f7bc e0f5 de3c
000000d0: 7548 1f3d 8c6a 1dbd 4328 c13c 1ed2 c33c
000000e0: 3ffc 353d 9cc9 ce3c 4bf5 00bd ba65 6ebc
000000f0: 4f62 803c e86d 2e3c 12b4 003d 23c0 023c
00000100: c7b6 1bbd 7c44 3dbd cdd5 39bd de4c a2bc
00000110: 59de 60bb ab02 343d 6e52 7cbc a163 253d
00000120: 1036 25ba 2f4d 113a 2a91 20bc 2e6b 073d
00000130: 6a78 95bc ea7d 2b3c 1c84 19bd 575b cc3c
00000140: 45ac aebc 235e 79ba 5ba7 fdbb 686f 8c3c
00000150: e3a6 16bd 9f0d 263d ddac a4bc 675b c83c
00000160: 1b63 f73c 13ab bf3b d508 dfbc 75c8 7d3b
00000170: 83d0 92bc ca52 d8bb 4047 b9bc 3938 fabc
00000180: a044 1b3d 26d5 b03b b6ca 073d e2c9 f039
00000190: 23bc 1d3d 687a e13c 73e4 233d 5b05 193d
000001a0: 7a46 f0bc 13b2 a23c 36ec 453b 029a 1bbd
000001b0: 7107 263d 0c07 58bd 2021 b63c 4ae2 db3c
000001c0: b183 4abc 81e8 8b3c 3d9b 1dbd e253 0b3d
000001d0: 2576 bcbc 6c06 25bc 66e8 f9bc a356 043d
000001e0: 6919 1abd 4288 00bd 01ed d23c 4ff6 193d
000001f0: 0818 fd3c 61fd 973b 677b 293d 2dfc 18bd
00000200: ce62 193d f016 913c daab dfbb 1284 0dbd
00000210: f4fa d0bb e43c 26bc 8865 9b3c c344 d6bb
00000220: 087e 813c 3fe7 1bbc 3c3c 60bc a5c2 c0bc
00000230: 98c0 243d aa64 e0bb e23e f2bc fd0f 353d
00000240: add8 d3bb 1560 ca3c 7ce1 49bc 298a 813c
00000250: e4d4 4ebc ee0f f93c 58f5 03bd b340 edbc
00000260: aea7 0a3c 9cf0 78bc fb0d f33c 928c 9c3c
00000270: 1968 81bc 2e9c 323c 7899 39bc 648c 233d
00000280: 2e6c 223d 6d45 cc3c db8a 3e3d feb3 3c3d
00000290: f8f1 b63c a833 d4bc 79bf 70bc b7fe e13c
000002a0: a21a 6c3c e8e6 383a 3d73 d5bc 15b3 fa3c
000002b0: 659f e73c f7bc ec3c 058b df3c a421 193d
000002c0: 96a3 0abd 39be a1bc 1c16 193d b3a6 23bd
000002d0: 299f b3bc 8c69 0b3b 70e3 94bc a737 bc3c
000002e0: 225b a7bc 3c1d 6fbc cc3d 98bc 7683 58bb
000002f0: 7f86 143c bf78 d3bc db6b 1ebd 4ffb 1fbc
00000300: dd43 2fbb 17f9 8bbc ff29 803c 7933 88bc
00000310: be98 bdbc d9d6 c53c 4687 8b3b c85c 3b3c
00000320: 28f6 8e3c 8920 753c 3ad3 143d 8ed1 963c
00000330: 5879 95bc 7476 b6bc f562 95bc d04d 2f3c
00000340: bb88 34bc ebdd 4d3c 77d6 9cbc 34f9 27bd
00000350: 723e 093d 86ed 103c 0ba4 f6bc 8749 14bc
00000360: 65f8 ccbc 83a3 d73c 5713 9a3c ed8c 07bd
00000370: f9a5 f5bb f27e e2bc bde3 c13c d03d 1f3d
00000380: c0c3 0fbc 8194 5bbc 550c a93c 9178 e83b
00000390: cee4 043d 3007 87bc e411 473c a415 0b3d
000003a0: 53fc 56bb cc70 8fbc 9ba3 abbc 1abb ff3c
000003b0: f89f d2bb c026 933c a14f fe3c 9cb7 c53c
000003c0: b485 72bb 3966 18bd e348 03bb 2c81 893c
000003d0: 7938 e43b a4e7 f83a c2ab 2abd 67f6 f83c
000003e0: 00bb a13b fd75 eb3c 1aba 123d 4f83 d83c
000003f0: 35ca b9bc a936 133d 9088 983c 2691 e7bb

base_model.model.gpt_neox.layers.2.attention.query_key_value.lora_B.weight f4 [1536, 16]
-0.0048751873 -0.0043480885 0.0055714357 0.00065870583 -0.00033458252 0.0070162197 -0.0069366205 -0.002593668
0.0016003887 -0.002818207 -0.005611932 0.0032890723 0.0008723935 -0.0029047271 -0.00020740039 0.0018862633
0.0037879308 -0.002667821 -0.0039361347 -1.3289483e-05 0.00016320821 -0.008044591 -0.000982984 -0.002611986
-0.0001567168 -0.0041150725 -0.0026324755 0.0050853803 0.0005650885 -0.0054462575 0.002575978 0.0059005925
0.0046850243 0.006803004 -0.0004872311 -0.007308843 0.0007148936 -0.0017952146 0.0068016667 -0.0005569721
0.0020227078 0.001286516 -0.0025068424 -0.005665019 -0.0013995335 0.00075325504 -0.0013650743 0.00060404325
0.0046304776 -0.0018660543 -0.007929719 -0.008769063 -1.5446793e-05 0.0020743269 -0.0032387697 0.00039379345
0.003387863 0.0050034085 -0.0009846811 0.004777826 -0.0104144635 0.002277162 0.0004143546 0.0071694828
-0.0032393695 -0.0029179042 0.0043507954 0.009118764 0.0002767287 0.0061368416 0.0031501483 0.00015838283
0.0019219922 0.0046280655 -0.006233895 0.0020762957 -0.0028451507 0.0015312786 -0.004050705 0.004307008
-0.0019045967 0.001726239 -0.00923156 0.0031939873 -0.0016762423 0.001590022 0.004035324 -0.008361135
-0.004549276 -0.0012903214 0.007001275 -0.0053343605 -0.004699968 0.0009311583 0.003831504 -0.0023279367
0.0043794126 0.00377106 0.003929283 0.001200627 -0.00033832408 0.0030982192 -0.0004341953 -0.0012137488
0.0013216496 -0.0036899925 -0.0073894896 -0.0003872467 0.0047987485 0.0013381067 -0.0023072194 -0.004152454
-0.004428744 -0.004985223 -0.0011584549 -0.0020800112 -0.00022235328 -0.0015547125 0.0006739569 0.004547077
0.0013879144 0.008720332 -0.0007732686 0.00075890863 -0.003989588 0.00038435342 0.0046845973 -0.0016300583
0.002287653 0.0013167617 -0.00042084648 -0.0024581729 -0.0017197002 0.00023497712 -0.0061242464 0.00068341027
0.001956157 0.00035207326 -0.0007131506 0.0029873021 0.00062825397 0.00064287777 0.002017072 0.0021561917
-0.0014213974 0.0033654047 0.0013326803 0.0017093929 0.00365581 0.005308387 -0.0022384108 0.00052853726
0.002322484 0.008198329 0.0012732005 -0.003190715 -0.0002291879 0.003975564 -0.003739944 0.0032169602
0.00034858813 -0.000117061994 0.0050095366 -0.0012249564 -0.0028155998 0.003993572 0.0025800467 0.0046194033
0.0035003764 -0.0027533865 0.00010617796 -0.00073614845 -0.009271659 -9.23329e-05 -0.0037970885 0.007252396
-0.00094382203 -0.0025552593 -0.0015980509 -0.003759672 0.0023925744 -0.0031187583 0.0029241212 -7.806181e-06
0.0011780867 0.0054536657 -0.0016701987 -0.000609078 0.0022553264 0.004048595 0.00059066573 -0.0049727727
-0.0044433987 -0.001976614 -0.000865297 0.0025373981 -0.0015519245 -0.0005413301 0.0017599297 -0.000866665
0.0029699225 0.0017634274 0.001784504 0.0030067905 0.00044738944 6.5562104e-05 -3.9582712e-05 -0.003222046
-0.0017806487 -0.005162584 0.0044714953 0.0012474222 0.00023736061 0.00018711737 -0.009111354 -0.00078468974
-0.0044097444 0.0042804275 -0.0029709183 -0.005268621 -0.003780921 0.00080224685 -0.00038792714 0.008268367
-0.00168645 0.0018034794 0.0024060067 0.0010090363 0.0027423592 -0.0036410904 0.002584166 0.0012951432
-0.0016929406 -0.00456117 0.0025840928 -0.002411265 0.0013828789 0.0024023915 0.00400635 -0.0023489322
0.0016121308 -0.0006541286 -0.002168328 0.0012574784 -0.0031773206 0.0028444403 -0.0010211536 0.00028796244
0.0016990565 0.0038006303 0.0033401349 0.002028278 0.0015079466 -2.3671799e-05 0.0014117452 -0.0033395952
00000000: 09c0 9fbb 697a 8ebb 9790 b63b 00ad 2c3a
00000010: e86a afb9 51e8 e53b 974c e3bb 87fa 29bb
00000020: 22c4 d13a abb1 38bb 4ce4 b7bb 7a8d 573b
00000030: 56b1 643a 3c5d 3ebb 9e79 59b9 7e3c f73a
00000040: ef3e 783b 9cd6 2ebb b1fa 80bb e5f5 5eb7
00000050: df22 2b39 76cd 03bc 78d7 80ba da2d 2bbb
00000060: 5854 24b9 bbd7 86bb 9c85 2cbb 43a3 a63b
00000070: 7322 143a 8576 b2bb bdd1 283b c259 c13b
00000080: d584 993b bceb de3b 0d73 ffb9 057f efbb
00000090: b367 3b3a 684d ebba 84e0 de3b c401 12ba
000000a0: 688f 043b 50a0 a83a d649 24bb a0a1 b9bb
000000b0: 8d70 b7ba 1776 453a 4bec b2ba a858 1e3a
000000c0: 43bb 973b 6496 f4ba a7eb 01bc 1eac 0fbc
000000d0: bc93 81b7 6ef1 073b 8a41 54bb 1076 ce39
000000e0: e906 5e3b a2f3 a33b 6a10 81ba 4f8f 9c3b
000000f0: 6da1 2abc 703c 153b bc3d d939 fbed ea3b
00000100: 9a4b 54bb 4f3a 3fbb 1e91 8e3b de66 153c
00000110: e615 9139 8f17 c93b b872 4e3b 9113 2639
00000120: 5beb fb3a 07a7 973b b445 ccbb 7612 083b
00000130: b575 3abb 2fb5 c83a c7bb 84bb cd21 8d3b
00000140: a9a3 f9ba f842 e23a f83f 17bc 3752 513b
00000150: 5cb5 dbba 4968 d03a c03a 843b 24fd 08bc
00000160: 1812 95bb 0020 a9ba f46a e53b dccb aebb
00000170: 3002 9abb fa18 743a f819 7b3b 4c90 18bb
00000180: 2d81 8f3b e323 773b 37c1 803b 5b5e 9d3a
00000190: 1761 b1b9 7e0b 4b3b b5a4 e3b9 a716 9fba
000001a0: 343b ad3a cdd3 71bb 8823 f2bb 5f07 cbb9
000001b0: d23e 9d3b 6963 af3a b834 17bb 4f11 88bb
000001c0: ff1e 91bb 155b a3bb 4cd7 97ba cc50 08bb
000001d0: 8127 69b9 7fc7 cbba 7bac 303a a6ff 943b
000001e0: aeea b53a b9df 0e3c 2db5 4aba 7ff1 463a
000001f0: 17bb 82bb 0b83 c939 4081 993b aea7 d5ba
00000200: 73ec 153b 3197 ac3a 0fa5 dcb9 4c19 21bb
00000210: 9067 e1ba 3164 7639 e7ad c8bb e326 333a
00000220: de32 003b 7996 b839 baf2 3aba 9dc6 433b
00000230: 69b1 243a cc86 283a da30 043b e54e 0d3b
00000240: 2f4e baba 1f8e 5c3b 55ad ae3a b50d e03a
00000250: 5096 6f3b faf1 ad3b 4db2 12bb 898d 0a3a
00000260: d134 183b 4952 063c 85e1 a63a 511b 51bb
00000270: 2952 70b9 7345 823b d919 75bb a3d3 523b
00000280: b5c2 b639 2e7f f5b8 0a27 a43b b78e a0ba
00000290: ed85 38bb 83dc 823b 0016 293b 5d5e 973b
000002a0: 9266 653b 2972 34bb dcab de38 16fa 40ba
000002b0: 28e8 17bc d9a2 c1b8 93d8 78bb 82a5 ed3b
000002c0: d36a 77ba 2376 27bb b175 d1ba d464 76bb
000002d0: bdcc 1c3b 1564 4cbb 9da2 3f3b 4bf7 02b7
000002e0: 086a 9a3a aab4 b23b 92ea daba 88aa 1fba
000002f0: 19ce 133b 14aa 843b e8d6 1a3a a4f2 a2bb
00000300: ee99 91bb 148a 01bb 19d5 62ba 7a4a 263b
00000310: f269 cbba 0ce8 0dba 71ad e63a e730 63ba
00000320: 08a3 423b ce22 e73a 05e6 e93a 930d 453b
00000330: 988f ea39 637e 8938 9d05 26b8 f628 53bb
00000340: a864 e9ba e52a a9bb 9f85 923b 8b80 a33a
00000350: 01e4 7839 f034 4439 ca47 15bc a3b3 4dba
00000360: 9e7f 90bb d442 8c3b bdb3 42bb 65a4 acbb
00000370: 54c9 77bb e04d 523a b362 cbb9 0b78 073c
00000380: df0b ddba ba62 ec3a 18ae 1d3b a441 843a
00000390: 27b9 333b 5c9f 6ebb 1c5b 293b cbc1 a93a
000003a0: a9e5 ddba de75 95bb e259 293b 5006 1ebb
000003b0: b741 b53a 7171 1d3b b347 833b 8bf0 19bb
000003c0: 224e d33a d479 2bba 821a 0ebb f9d1 a43a
000003d0: 983a 50bb ca69 3a3b 3bd8 85ba aaf9 9639
000003e0: e0b2 de3a ff13 793b 2ae6 5a3b dcec 043b
000003f0: 4ba6 c53a cd92 c6b7 4f0a b93a 1cdd 5abb

base_model.model.gpt_neox.layers.3.attention.query_key_value.lora_A.weight f4 [16, 512]
-0.032227 0.039553236 -0.005337201 -0.018476477 0.015667258 -0.008568355 -0.027298918 0.03826767
0.01172553 -0.009483498 0.035729017 0.010056247 -0.029857038 -0.021673562 0.034793623 0.026863506
-0.009750332 -0.020035682 -0.039587095 -0.023103813 0.019589594 -0.033213098 0.033209704 0.021824041
-0.0173237 0.0050549554 -0.02930034 -0.029684825 0.019841589 0.025351848 0.045987282 -0.0037856835
0.024547542 0.02613464 -0.020112371 -0.00095074036 0.040825207 0.0064807353 -0.042181045 -0.011336078
-0.0028141825 -0.0015762596 -0.026440384 0.0039339084 -0.040517308 -0.011102764 0.027427703 0.019165954
-0.04976414 0.019290397 0.032562513 -0.020639077 0.03269868 -0.032190368 0.0013711775 -0.02275433
-0.007888388 0.036844194 -0.040263493 0.023824558 0.0053244988 -0.021685628 -0.041468766 0.002061646
0.027045531 -0.014122543 0.03156586 -0.008023883 0.0010185052 -0.024306651 -0.0130416 -0.008553888
0.039501403 -0.010011127 0.0057718307 -0.020897307 -0.0064568566 0.026052514 0.0041010375 -0.00010083708
-0.016790293 0.01773806 -0.038792446 -0.041153844 -0.024864115 -0.036919538 -0.011277582 0.0029512602
0.0044222814 0.0258906 0.026967462 -0.014299681 0.030646835 -0.04247315 -0.028081553 0.023440892
0.016686019 0.028293334 -0.03420631 0.034041263 -0.002895631 0.0181684 0.010408978 0.034804247
0.004395324 0.0114647625 -0.028101346 -0.0106356535 -0.0076231393 0.043387953 0.01655444 -0.023107085
0.03220575 -0.032909535 -0.029795982 -0.016253464 -0.043897256 0.011249581 -0.028920814 0.030804079
0.038699143 0.0344726 0.02778352 0.011994797 -0.04451513 -0.043881956 -0.012673286 -0.036150813
0.03035315 0.026193332 -0.010569922 0.043894332 -0.032525897 -0.03804627 -0.03773282 0.023917962
0.03044394 -0.018936366 0.004367217 0.007511343 0.051419377 0.024821999 0.010873131 0.01627179
0.036497712 0.027053906 0.0109506175 -0.025709892 -0.02262152 -0.018385867 0.026940048 0.0010276977
0.04496205 -0.034727342 -0.023606062 -0.03046486 -0.010121964 -0.018370835 0.0009853565 -0.009909396
0.024674091 0.035134368 -0.016173795 0.01566834 0.031721033 0.026311459 0.015887009 0.035313662
-0.03363503 -0.03251663 0.022887295 -7.388025e-05 -0.03527394 -0.00011578583 -0.003907512 -0.035356153
0.022300567 0.03413536 -0.0005872229 0.028083332 0.016253015 0.015337046 -0.035272162 -0.011314456
0.038023144 0.024112917 -0.04752648 0.030049635 -0.01446115 -0.02541383 0.031944107 -0.036051605
0.03157134 -0.004070326 0.030704789 0.027586468 -0.039702423 0.019610949 0.042207178 0.004853074
0.024026314 -0.022166727 0.00972312 -0.037199147 -0.00071684504 -0.035951566 -0.0149301365 -0.010043935
0.033443864 0.0061134375 0.030927887 -0.0037935164 0.032153405 -0.01798037 -0.035502445 0.013970072
-0.025503574 -0.024104863 0.030784322 -0.0063111954 0.00723852 0.023761993 0.033134412 -0.041296337
-0.022205615 0.038383394 0.016621802 -0.012252884 -0.038634032 -0.0036908498 0.027046813 -0.0043865005
-0.016151158 -0.011393913 -0.03617826 0.016414378 0.0005939322 -0.02830777 -0.0038319153 0.040488753
0.0033872037 0.0022679963 0.03738145 0.027476974 0.02829036 0.024065202 -0.03946454 -0.0077043152
0.014157583 -0.009673141 0.028119203 -0.023343029 0.00404327 -0.040180482 -0.031905968 -0.00032747522
00000000: 7500 04bd 9302 223d b0e3 aebb fb5b 97bc
00000010: 9f58 803c 4962 0cbc fba1 dfbc 8fbe 1c3d
00000020: 701c 403c ac60 1bbc 9758 123d f5c2 243c
00000030: bf96 f4bc c18c b1bc c283 0e3d db10 dc3c
00000040: dbbf 1fbc df21 a4bc 1426 22bd 3544 bdbc
00000050: 5b7a a03c 750a 08bd e606 083d 55c8 b23c
00000060: 6fea 8dbc 0aa4 a53b 4407 f0bc 972d f3bc
00000070: d48a a23c aeae cf3c 295d 3c3d 3b19 78bb
00000080: ed17 c93c 5018 d63c b3c2 a4bc 1b3b 79ba
00000090: 5538 273d 595c d43b 08c6 2cbd f5ba 39bc
000000a0: 266e 38bb 7f9a ceba 8199 d8bc 04e8 803b
000000b0: 7af5 25bd 5ee8 35bc 10b0 e03c eb01 9d3c
000000c0: 7cd5 4bbd e506 9e3c 4560 053d 4813 a9bc
000000d0: 0def 053d 0cda 03bd 15b9 b33a 4a67 babc
000000e0: 4c3e 01bc f0e9 163d 55eb 24bd b82b c33c
000000f0: 2279 ae3b 0fa6 b1bc 27db 29bd ae1c 073b
00000100: 978e dd3c 3d62 67bc 344b 013d 9b76 03bc
00000110: 5d7f 853a be1e c7bc 6fac 55bc 9b25 0cbc
00000120: 39cc 213d b605 24bc a021 bd3b d430 abbc
00000130: 0a94 d3bb 156c d53c ff61 863b 7f78 d3b8
00000140: cc8b 89bc 684f 913c d4e4 1ebd ef90 28bd
00000150: d4af cbbc f138 17bd 9bc5 38bc ee69 413b
00000160: c9e8 903b 8618 d43c deea dc3c 3649 6abc
00000170: 120f fb3c 53f8 2dbd 490b e6bc 1d07 c03c
00000180: 1eb1 883c 6cc7 e73c ea1b 0cbd da6e 0b3d
00000190: a0c4 3dbb e5d5 943c 6b8a 2a3c e68e 0e3d
000001a0: a606 903b b3d6 3b3c cb34 e6bc 2a41 2ebc
000001b0: 87cb f9bb 91b7 313d 2d9d 873c 124b bdbc
000001c0: 2dea 033d 26cc 06bd b416 f4bc fc25 85bc
000001d0: 9ccd 33bd 2a50 383c 58eb ecbc d658 fc3c
000001e0: fe82 1e3d 2433 0d3d 449a e33c d385 443c
000001f0: 7f55 36bd 91bd 33bd 9da3 4fbc e012 14bd
00000200: 2ba7 f83c 6693 d63c 772d 2dbc 8bca 333d
00000210: e039 05bd 68d6 1bbd bb8d 1abd 9aef c33c
00000220: 9265 f93c 7020 9bbc df1a 8f3b b621 f63b
00000230: 209d 523d 8157 cb3c 3825 323c 6b4c 853c
00000240: a07e 153d 27a0 dd3c 386a 333c 8d9d d2bc
00000250: c450 b9bc f59d 96bc 60b1 dc3c d0b3 863a
00000260: 202a 383d 423e 0ebd 8061 c1bc 7191 f9bc
00000270: 98d6 25bc 6f7e 96bc 1427 813a 055b 22bc
00000280: 5221 ca3c 0ee9 0f3d e87e 84bc e45a 803c
00000290: eaed 013d 218b d73c 7925 823c 0fa5 103d
000002a0: e3c4 09bd 2830 05bd 237e bb3c 28f0 9ab8
000002b0: 687b 10bd 0bd2 f2b8 960a 80bb 9dd1 10bd
000002c0: aeaf b63c 85d1 0b3d ddef 19ba 040f e63c
000002d0: 0b25 853c 3c48 7b3c 8b79 10bd 4560 39bc
000002e0: 28be 1b3d 7488 c53c 20ab 42bd a72a f63c
000002f0: 76ee 6cbc aa30 d0bc d3d7 023d d9aa 13bd
00000300: f350 013d 5f60 85bb 9c88 fb3c 04fd e13c
00000310: 029f 22bd 24a7 a03c 6fe1 2c3d 8906 9f3b
00000320: d5d2 c43c ff96 b5bc b94d 1f3c 225e 18bd
00000330: a8ea 3bba f341 13bd 889d 74bc 518f 24bc
00000340: 6ffc 083d 3b53 c83b 7b5c fd3c a59c 78bb
00000350: 4ab3 033d 924b 93bc 036b 11bd bbe2 643c
00000360: dfec d0bc 9077 c5bc 672f fc3c 25ce cebb
00000370: 1b31 ed3b 83a8 c23c f3b7 073d 5926 29bd
00000380: 8de8 b5bc e837 1d3d 722a 883c 52c0 48bc
00000390: b83e 1ebd 2fe2 71bb 4791 dd3c a2bc 8fbb
000003a0: 6f4f 84bc 89ad 3abc a82f 14bd 7277 863c
000003b0: 1eb2 1b3a b2e5 e7bc df20 7bbb 89d7 253d
000003c0: d9fb 5d3b aaa2 143b 4b1d 193d 6417 e13c
000003d0: 2fc1 e73c 6324 c53c 92a5 21bd 7b74 fcbb
000003e0: 35f5 673c 187c 1ebc 3e5a e63c e139 bfbc
000003f0: 687d 843b 4a94 24bd d5af 02bd fbb0 abb9
